test.pt (torch, 372806 bytes, 22 tensors)

fcs.0.weight f4 [100, 2]
-0.04688536 -0.37881008 -0.0626058 0.12775773 -0.124848664 -0.5139759 0.18716268 -0.35835832
0.34122396 0.29860172 -0.41966707 0.2783965 0.119485475 0.18383892 0.067942314 -0.53330547
0.6675745 0.51535445 -0.50963706 -0.07170786 0.22167754 -0.6459635 -0.4902941 0.44642842
0.3045314 -0.34027445 -0.2941335 0.15041818 0.115317225 0.15620247 -0.089235686 0.54208606
-0.25043052 -0.31437948 -0.34087288 -0.41493 0.1958715 -0.4495165 -0.49337927 0.35877907
0.31652135 -0.47777185 -0.23244299 -0.53220373 0.16576852 -0.06617875 0.37004706 -0.46389654
-0.24377574 0.6301448 0.547933 0.69658375 0.18815784 0.5405444 0.6281561 -0.54383403
-0.5233882 0.60611814 0.24712066 0.118874125 0.5171062 -0.58371085 0.513615 0.36127326
0.23501655 0.10766324 -0.17036642 0.2902855 0.5610131 0.11889588 -0.30654806 -0.3599899
-0.037734937 -0.5131756 -0.4252398 0.19485335 -0.5681574 0.64932686 0.053057928 0.30495837
0.09630366 -0.5743711 0.36678946 -0.35550395 -0.05967894 0.36240143 -0.10066055 0.562461
-0.24633095 0.4361162 0.09148064 0.4167237 0.08798277 -0.34964144 0.2490641 0.22295308
-0.4620638 -0.5462763 -0.69736505 0.69919986 0.1094106 0.07842906 0.029047081 -0.26450658
0.5231027 0.45344958 -0.4967495 0.27982953 0.473554 -0.069860905 0.05025836 0.13257347
-0.5806221 -0.45773584 0.6281198 -0.631846 0.13321653 -0.6846738 -0.21734244 -0.09116711
0.05007412 -0.3108051 0.28566632 0.20128717 -0.58694535 0.06866271 0.6326451 0.60077053
-0.32990864 0.41066018 -0.51383704 0.64405054 0.24424331 0.25974476 -0.53017443 -0.22627178
-0.6244678 0.35473338 -0.5856707 -0.26697266 -0.051511284 0.29780078 0.17850824 0.23513244
0.5461498 -0.008829313 -0.07780991 -0.2651998 -0.1817654 -0.5606059 0.4617293 0.6423415
0.4263102 0.34968126 -0.19487163 -0.5731868 0.6662858 -0.23976411 -0.28255692 -0.5210992
-0.47148114 0.120482855 0.40260804 -0.64868975 -0.62679994 -0.08303757 -0.5822193 0.5630611
0.0030603576 -0.5190164 0.1902057 0.52185935 0.09553712 -0.519318 0.10380043 -0.52823025
0.40925133 -0.06937321 0.15382087 -0.11944465 -0.57167035 0.18172932 0.5891911 -0.13935514
-0.27006352 -0.58005524 -0.08131346 0.7081834 -0.18377542 -0.2196705 0.47597042 -0.5595596
-0.1019147 -0.23257977 -0.0095847035 -0.4398618 0.031809755 0.08632953 0.13345793 -0.40849996
00000000: dd0a 40bd 65f3 c1be 7837 80bd ecd2 023e
00000010: a8b0 ffbd ed93 03bf 93a7 3f3e be7a b7be
00000020: e8b4 ae3e 53e2 983e 9ade d6be fc89 8e3e
00000030: cdb4 f43d 4540 3c3e 5725 8b3d b586 08bf
00000040: 2ae6 2a3f 45ee 033f 9377 02bf 92db 92bd
00000050: 70ff 623e dd5d 25bf d407 fbbe 4492 e43e
00000060: 8aeb 9b3e 7438 aebe ab98 96be 3907 1a3e
00000070: 702b ec3d 8af3 1f3e 33c1 b6bd 27c6 0a3f
00000080: 6e38 80be 59f6 a0be e486 aebe b471 d4be
00000090: 8a92 483e 0727 e6be 359c fcbe e4b1 b73e
000000a0: 160f a23e 839e f4be 8905 6ebe 813e 08bf
000000b0: 39bf 293e b988 87bd cf76 bd3e d983 edbe
000000c0: 59a0 79be 2b51 213f 5645 0c3f 5053 323f
000000d0: 73ac 403e 1e61 0a3f d7ce 203f b538 0bbf
000000e0: c5fc 05bf 8f2a 1b3f 330d 7d3e 4774 f33d
000000f0: 1261 043f 136e 15bf 467c 033f cff8 b83e
00000100: 2ea8 703e 8b7e dc3d 8974 2ebe 4da0 943e
00000110: 8e9e 0f3f af7f f33d def3 9cbe 9950 b8be
00000120: f38f 1abd 7a5f 03bf 08b9 d9be a387 473e
00000130: c372 11bf 493a 263f 4553 593d 8123 9c3e
00000140: da3a c53d fc09 13bf d4cb bb3e 9d04 b6be
00000150: e771 74bd ae8c b93e 1e27 cebd 72fd 0f3f
00000160: 2e3e 7cbe 9f4a df3e 345a bb3d cf5c d53e
00000170: 4f30 b43d 3404 b3be a90a 7f3e d04d 643e
00000180: a093 ecbe c3d8 0bbf 8486 32bf c3fe 323f
00000190: aa12 e03d 6a9f a03d 25f4 ed3c 686d 87be
000001a0: 0fea 053f 8b2a e83e f355 febe d145 8f3e
000001b0: ab75 f23e 3c13 8fbd b6db 4d3d 57c1 073e
000001c0: a6a3 14bf 5a5c eabe 76cc 203f a9c0 21bf
000001d0: ea69 083e c846 2fbf 048f 5ebe d2b5 babd
000001e0: 851a 4d3d d921 9fbe db42 923e 391e 4e3e
000001f0: 0d42 16bf 099f 8c3d 07f5 213f 19cc 193f
00000200: c9e9 a8be 0d42 d23e d38a 03bf 7fe0 243f
00000210: eb1a 7a3e 44fd 843e 83b9 07bf cab3 67be
00000220: 1fdd 1fbf 9d9f b53e 84ee 15bf a4b0 88be
00000230: 7ffd 52bd 5879 983e ddca 363e 8fc6 703e
00000240: 79d0 0b3f d3a8 10bc cd5a 9fbd 45c8 87be
00000250: b620 3abe de83 0fbf c867 ec3e 7e70 243f
00000260: 5545 da3e 6c09 b33e 6e8c 47be 5fbc 12bf
00000270: b591 2a3f b984 75be 4dab 90be c266 05bf
00000280: fa65 f1be b7bf f63d a422 ce3e 8810 26bf
00000290: f675 20bf 9a0f aabd 530c 15bf c624 103f
000002a0: 4890 483b 42de 04bf 48c5 423e 9398 053f
000002b0: f7a8 c33d 06f2 04bf 5295 d43d 193a 07bf
000002c0: 6489 d13e 8b13 8ebd 3883 1d3e 669f f4bd
000002d0: fd58 12bf 4017 3a3e 3ad5 163f 1db3 0ebe
000002e0: c445 8abe 807e 14bf ac87 a6bd 824b 353f
000002f0: a02f 3cbe 4ef1 60be 65b2 f33e 4c3f 0fbf
00000300: a7b8 d0bd 6429 6ebe 2909 1dbc 9135 e1be
00000310: f24a 023d 89cd b03d 32a9 083e e826 d1be

fcs.0.bias f4 [100]
0.16530903 -0.6146384 0.015144429 0.07366304 -0.17437734 -0.053221848 0.003246261 0.36118287
0.6207114 -0.6187761 0.5454101 0.23116693 0.6818552 0.6181276 -0.24153392 -0.3260999
0.47703618 0.41203478 0.5844369 -0.29084936 0.17056729 -0.23726043 -0.52327937 0.43785906
0.13889982 0.5623511 0.3597852 -0.48406506 -0.33780414 0.21561538 0.52984244 -0.5854682
0.67757034 0.43486187 -0.04889069 -0.673998 -0.30227634 0.48558667 0.23510754 0.11369643
-0.5880419 -0.6617089 -0.6182855 0.0078048888 -0.104300626 -0.38042495 0.66808933 -0.6901673
-0.6629926 -0.6169365 -0.3393446 0.043369718 -0.19982338 0.055082098 0.52906215 -0.5367322
-0.31891325 0.667703 -0.14938071 -0.24949868 0.45685944 0.6499791 -0.226499 -0.51580465
0.6934105 0.5913494 0.26334953 0.09412821 -0.08086106 -0.38516596 -0.6356407 0.68812054
0.2385644 0.6456275 0.6321288 -0.605599 0.22988394 -0.48807922 0.43597814 0.6397484
0.65864116 0.50224763 0.192532 -0.19691817 0.23705506 -0.40475538 -0.014607313 0.40722984
-0.558498 0.12402313 0.55486965 0.2549959 0.24145041 0.22611739 -0.35074282 0.38120496
0.4194699 -0.13387752 -0.6114779 -0.05267722
00000000: c546 293e f158 1dbf 5720 783c a6dc 963d
00000010: f98f 32be 27ff 59bd 39bf 543b f6ec b83e
00000020: f1e6 1e3f 1c68 1ebf ff9f 0b3f 06b7 6c3e
00000030: 108e 2e3f 9c3d 1e3f ab54 77be 91f6 a6be
00000040: 163e f43e 39f6 d23e a89d 153f 35ea 94be
00000050: 31a9 2e3e 66f4 72be a3f5 05bf 102f e03e
00000060: c13b 0e3e 3ef6 0f3f c435 b83e 60d7 f7be
00000070: aaf4 acbe 47ca 5c3e c1a3 073f 3ee1 15bf
00000080: 4075 2d3f 37a6 de3e 9b41 48bd 228b 2cbf
00000090: f7c3 9abe d19e f83e 08c0 703e add9 e83d
000000a0: ea89 16bf c165 29bf f547 1ebf 27c0 ff3b
000000b0: 919b d5bd 0fc7 c2be e707 2b3f ceae 30bf
000000c0: e2b9 29bf 8def 1dbf 93be adbe 72a4 313d
000000d0: 809e 4cbe c49d 613d 9e70 073f 4867 09bf
000000e0: 9948 a3be 95ee 2a3f 42f7 18be 957c 7fbe
000000f0: 7be9 e93e 0865 263f 5bef 67be c60b 04bf
00000100: 5a83 313f ad62 173f c0d5 863e 4ac6 c03d
00000110: 7c9a a5bd 7934 c5be 59b9 22bf ab28 303f
00000120: 3a4a 743e d847 253f 31d3 213f 8908 1bbf
00000130: b266 6b3e 85e5 f9be 8738 df3e 8dc6 233f
00000140: b59c 283f 4d93 003f 1c27 453e eba4 49be
00000150: 90be 723e 193c cfbe 8353 6fbc 6e80 d03e
00000160: baf9 0ebf d7ff fd3d f00b 0e3f d38e 823e
00000170: c73e 773e 518b 673e 9094 b3be 4c2d c33e
00000180: c2c4 d63e 3017 09be d189 1cbf 12c4 57bd

fch.0.0.weight f4 [100, 100]
0.059071247 0.006837911 0.04790962 -0.053584747 -0.060231887 -0.07761745 -0.07113282 0.0029011432
-0.058005095 -0.07311887 -0.030895298 0.026498178 -0.057775922 0.0155255245 -0.08279792 0.04660648
-0.056125104 0.09167143 0.08422122 -0.06448841 -0.08181681 0.08931915 -0.038925257 -0.020199308
-0.013315272 0.061858952 -0.08840704 -0.050223187 -0.08225148 0.02504558 -0.066718906 0.08028194
0.09289731 -0.08200368 0.052810796 -0.07460021 -0.07472977 -0.0042054197 -0.046735715 0.038935404
0.059338853 -0.018844344 -0.012194716 0.09719819 0.08489371 -0.020303974 -0.015160173 0.0058474103
0.031535033 0.014535584 -0.07840836 -0.035524357 -0.038118117 -0.04285262 0.005270197 -0.03377349
-0.07867634 -0.09547115 -0.09374258 0.06570618 0.09748932 0.054145016 0.08795013 0.081622966
-0.08558439 0.007896418 -0.022888726 -0.06653505 -0.07727173 0.04190068 0.055955164 0.07306191
-0.00080701394 0.0550699 0.0905403 -0.00093210157 0.047349606 -0.026897268 -0.05238872 0.070835136
0.046907272 -0.036924705 0.004912589 -0.07384427 0.012135148 0.04840413 0.03219818 -0.06233704
-0.010077816 0.05032215 0.035316452 0.0864407 0.087509245 0.01544413 -0.06615868 0.058222473
0.06313578 -0.038983546 0.050879247 0.045389522 -0.091817446 -0.0038585889 -0.02365431 -0.006805703
-0.035048198 -0.010522064 0.026806656 0.0386268 -0.100702666 -0.011769855 0.050906714 0.054300807
-0.039128233 -0.1177913 0.03963255 0.084546685 0.06242883 -0.08541334 -0.09091555 -0.028929584
0.0015309446 -0.076829106 -0.0478203 -0.028446656 -0.026116917 -0.02495653 -0.037916314 0.027348364
-0.041110102 0.04957146 0.049636014 -0.03730276 0.027346026 0.0010679303 0.055639453 -0.0021819172
0.04651711 -0.017924422 -0.051080804 0.058399975 -0.058398593 -0.078904904 0.05318055 0.042152498
0.047589943 0.05424091 0.025899576 0.06272545 -0.055254288 0.06828697 0.07964685 -0.06718244
0.040436823 0.08536185 0.017930174 0.022983642 -0.032551173 0.06417587 0.08199816 0.056652956
-0.07846317 0.017187808 0.044634458 -0.034845933 -0.035004433 -0.11208769 0.06586895 -0.0015440407
0.07140704 0.007214544 0.028186403 0.028143503 0.044077616 -0.021506984 -0.089993216 -0.04401346
0.0045463406 0.0059551555 -0.018994901 0.06484595 -0.094796695 0.055012655 -0.03790543 0.013664448
-0.069225065 -0.0108053805 0.013965183 -0.08622945 0.10377671 0.0037829357 0.04818311 -0.049447473
0.0593905 -0.004669796 0.010569901 0.022055084 -0.09678228 -0.027119504 -0.0456275 -0.030416816
-0.05982756 0.048302945 -0.066845074 -0.007813713 -0.09306238 -0.03664338 0.041568387 0.037745442
0.096761055 -0.004700172 -0.07888089 -0.045527913 0.07172099 0.053203452 0.063107915 -0.08211817
-0.0838694 0.049334913 0.011318244 -0.06593492 0.044180837 -0.019293912 -0.0011257152 0.008682869
0.07386728 0.09280211 -0.048406728 0.08875858 0.044409983 0.04446579 0.034385595 -0.06950581
0.03580041 -0.025976412 -0.06546178 0.057276323 -0.05209251 -0.055222727 -0.042351883 0.050025996
0.09244635 0.054998327 -0.04487 0.059939254 0.015238598 0.09451588 0.027169451 0.064197764
0.055101924 -0.09644441 -0.060286883 0.071008235 0.09195494 -0.082975656 0.062438097 -0.0045555457
00000000: b1f4 713d 8e10 e03b e13c 443d ae7b 5bbd
00000010: b6b5 76bd e6f5 9ebd 15ae 91bd 1b21 3e3b
00000020: c096 6dbd 59bf 95bd 2318 fdbc b512 d93c
00000030: 72a6 6cbd c55e 7e3c f591 a9bd 70e6 3e3d
00000040: 70e3 65bd 3bbe bb3d 2d7c ac3d 8012 84bd
00000050: 928f a7bd f5ec b63d 1770 1fbd 0579 a5bc
00000060: 4c28 5abc d05f 7d3d c00e b5bd d4b6 4dbd
00000070: 7773 a8bd 632c cd3c eca3 88bd dc6a a43d
00000080: f240 be3d 8cf1 a7bd 2250 583d ffc7 98bd
00000090: ec0b 99bd 9ecd 89bb f36d 3fbd bb7a 1f3d
000000a0: 4c0d 733d 745f 9abc 59cc 47bc d80f c73d
000000b0: c1dc ad3d 8554 a6bc 6062 78bc a29b bf3b
000000c0: e12a 013d a826 6e3c 9094 a0bd fd81 11bd
000000d0: be21 1cbd 3b86 2fbd 9eb1 ac3b 1256 0abd
000000e0: 1021 a1bd 6186 c3bd 1cfc bfbd f690 863d
000000f0: 7ba8 c73d 2ac7 5d3d 331f b43d f129 a73d
00000100: de46 afbd fa5f 013c 2381 bbbc 8743 88bd
00000110: a440 9ebd 0ca0 2b3d 3e31 653d 7ca1 953d
00000120: ca8d 53ba fa90 613d 316d b93d 4758 74ba
00000130: a9f1 413d a957 dcbc 8e95 56bd 0312 913d
00000140: d721 403d 5c3e 17bd c9f9 a03b aa3b 97bd
00000150: 80d2 463c 6943 463d 3de2 033d 2055 7fbd
00000160: 6d1d 25bc 991e 4e3d fca7 103d d207 b13d
00000170: 0c38 b33d 6009 7d3c 347e 87bd b07a 6e3d
00000180: 554d 813d 36ad 1fbd c266 503d 5dea 393d
00000190: c90a bcbd 61e0 7cbb afc6 c1bc 6002 dfbb
000001a0: b38e 0fbd bc64 2cbc a299 db3c 2337 1e3d
000001b0: 333d cebd 5ad6 40bc 8f83 503d 866a 5e3d
000001c0: ed44 20bd 913c f1bd be55 223d d026 ad3d
000001d0: 5fb5 7f3d 30ed aebd ef31 babd bcfd ecbc
000001e0: faa9 c83a 9458 9dbd 38df 43bd f608 e9bc
000001f0: 25f3 d5bc a371 ccbc 234e 1bbd ad09 e03c
00000200: 1163 28bd 710b 4b3d 224f 4b3d c7ca 18bd
00000210: c604 e03c cbf9 8b3a 32e6 633d 7ffe 0ebb
00000220: ba88 3e3d 3dd6 92bc 1b3a 51bd d034 6f3d
00000230: 5d33 6fbd e598 a1bd d9d3 593d 19a8 2c3d
00000240: aced 423d b72b 5e3d 592b d43c 3376 803d
00000250: 5252 62bd 0ada 8b3d e31d a33d f296 89bd
00000260: 15a1 253d 32d2 ae3d 4de2 923c 3148 bc3c
00000270: 6154 05bd a36e 833d a7ee a73d ee0c 683d
00000280: 4cb1 a0bd 72cd 8c3c 9fd2 363d 9cba 0ebd
00000290: cf60 0fbd 3b8e e5bd 4de6 863d 6961 caba
000002a0: db3d 923d fb67 ec3b 2ce7 e63c 348d e63c
000002b0: bb8a 343d 6a2f b0bc 5d4e b8bd 7547 34bd
000002c0: 78f9 943b 7723 c33b 329b 9bbc f4cd 843d
000002d0: c524 c2bd f354 613d b942 1bbd d9e0 5f3c
000002e0: dfc5 8dbd 0d09 31bc 39ce 643c 1199 b0bd
000002f0: e288 d43d 21eb 773b a75b 453d 6f89 4abd
00000300: 7443 733d 1705 99bb 612d 2d3c ddac b43c
00000310: ca35 c6bd b929 debc e7e3 3abd b02c f9bc
00000320: be0d 75bd 4fd9 453d 12e6 88bd 1605 00bc
00000330: 7d97 bebd 5e17 16bd 9d43 2a3d f79a 1a3d
00000340: a92a c63d e703 9abb 4e8c a1bd 7a7b 3abd
00000350: 74e2 923d ddeb 593d b93e 813d 922d a8bd
00000360: b8c3 abbd 6813 4a3d 2870 393c e308 87bd
00000370: f7f6 343d 440e 9ebc bc8c 93ba 9842 0e3c
00000380: ba47 973d 080f be3d 2246 46bd 0fc7 b53d
00000390: 3ee7 353d c321 363d e9d7 0c3d 1059 8ebd
000003a0: 73a3 123d 7ccc d4bc d310 86bd 949a 6a3d
000003b0: f55e 55bd 3a31 62bd 2b79 2dbd 0fe8 4c3d
000003c0: 8354 bd3d ed45 613d 9bc9 37bd dd82 753d
000003d0: 50ab 793c 8b91 c13d 7892 de3c 1e7a 833d
000003e0: 8eb2 613d a684 c5bd 61ef 76bd c46c 913d
000003f0: df52 bc3d 24ef a9bd 17bf 7f3d b046 95bb

fch.0.0.bias f4 [100]
0.0005260986 0.06859364 -0.03401167 0.06825325 0.09496798 0.0926548 -0.02824841 0.06790741
-0.06127345 -0.014897826 0.009686493 0.053988416 0.04264249 0.079579346 -0.06072017 -0.0038451226
-0.03433553 0.089371026 -0.035423685 0.089622006 0.05638982 -0.019644951 -0.060108583 0.056446616
-0.054763045 0.04759481 0.09699805 0.06674313 0.03731346 0.047543876 0.050549027 0.073960915
-0.005644107 0.073328145 0.020546893 -0.012709616 -0.032743935 -0.03463926 0.064671054 0.061761066
0.012396407 0.012525762 -0.07693632 0.05025117 0.06822432 -0.08325812 0.02979308 -0.06663592
-0.028413251 0.064906776 0.052128423 -0.11174726 0.008441675 0.06105601 0.051653232 -0.007855457
0.033153653 0.02099737 -0.0764789 0.046709355 -0.00095800654 -0.01507153 0.054918054 0.09641593
-0.06593854 0.080442205 0.033537794 -0.079942614 0.035123084 0.068924084 -0.095794104 0.0409201
-0.04155147 0.033722807 0.006391323 0.06493127 0.07102178 0.0747854 -0.04334339 0.022191016
0.049568854 -0.050250504 0.050205085 0.09156587 0.013785941 0.01706525 0.05495514 0.092474274
-0.10127956 -0.0857017 0.07235972 0.060722616 -0.10797363 0.0087785125 0.044697452 0.03799925
0.0090305125 -0.0622209 0.043484427 -0.0075484267
00000000: e1e9 093a d37a 8c3d d24f 0bbd 5cc8 8b3d
00000010: 937e c23d cdc1 bd3d 3669 e7bc 0a13 8b3d
00000020: def9 7abd 0316 74bc 19b4 1e3c f522 5d3d
00000030: e4a9 2e3d 7ffa a23d b7b5 78bd 74fe 7bbb
00000040: 6aa3 0cbd 2808 b73d 6d18 11bd be8b b73d
00000050: 03f9 663d 73ee a0bc 6b34 76bd 9134 673d
00000060: 374f 60bd c7f2 423d eaa6 c63d 9fb0 883d
00000070: 00d6 183d 5ebd 423d 7f0c 4f3d d278 973d
00000080: 33f2 b8bb 112d 963d f551 a83c fe3b 50bc
00000090: 811e 06bd e6e1 0dbd 4272 843d 2cf9 7c3d
000000a0: 4d1a 4b3c db38 4d3c ca90 9dbd 2cd4 4d3d
000000b0: 31b9 8b3d 3c83 aabd 9e10 f43c 6a78 88bd
000000c0: e8c2 e8bc d8ed 843d 9d84 553d bfdb e4bd
000000d0: f44e 0a3c de15 7a3d 5792 533d 2db4 00bc
000000e0: 20cc 073d ad02 ac3c f8a0 9cbd 4f52 3f3d
000000f0: bb22 7bba 94ee 76bc c1f1 603d b775 c53d
00000100: c90a 87bd e2be a43d ed5e 093d f4b8 a3bd
00000110: 39dd 0f3d 1228 8d3d b32f c4bd d69b 273d
00000120: e031 2abd ed20 0a3d 4e6e d13b b0fa 843d
00000130: de73 913d 1629 993d d788 31bd efc9 b53c
00000140: b608 4b3d 79d3 4dbd d9a3 4d3d e386 bb3d
00000150: 6dde 613c 6ccc 8b3c a418 613d 2763 bd3d
00000160: a86b cfbd 5f84 afbd 5531 943d 47b8 783d
00000170: 4721 ddbd c0d3 0f3c ad14 373d 1aa5 1b3d
00000180: b7f4 133c 58db 7ebd ba1c 323d cb58 f7bb

fch.1.0.weight f4 [100, 100]
-0.10734865 -0.014017988 -0.08018905 0.014120764 -0.0893544 0.07358136 -0.035091758 0.012248029
-0.042563412 -0.016501723 -0.06518899 0.063599296 -0.07602709 0.10322027 -0.021651115 0.074660785
-0.09728886 0.06963403 -0.02457673 -0.02118764 -0.096543916 0.016471155 -0.054837607 0.055742912
-0.037875306 0.0067165275 -0.08160464 -0.021525264 -0.08858898 0.05487123 0.032843933 0.09268243
0.03456062 0.073916405 0.06468821 0.011308809 -0.013808339 0.09982728 0.022612238 0.041744556
0.011848777 0.05270533 0.0745473 0.050516635 -0.002899372 -0.033622727 0.073651694 0.027572133
0.064785995 -0.02682095 -0.08677511 -0.0729625 -0.023046616 0.054403998 -0.04408764 -0.009307958
0.068427615 0.063407406 -0.0015564003 0.0888201 -0.0102224415 -0.007921948 0.046763174 0.05926407
0.008530827 -0.062547475 0.09264296 -0.009982553 -0.09163832 0.07734335 0.061440583 0.00097364886
0.033147436 0.068577304 -0.011396948 0.086864665 -0.08745554 0.06805366 -0.025015695 -0.07544685
0.048992444 -0.02928803 -0.0009844312 0.04493256 0.05776965 0.064923495 -0.007761373 0.07075549
0.084106244 -0.0054287827 0.029443283 0.078752525 0.040988475 -0.058094975 -0.05326505 -0.014284492
0.078938395 -0.03572131 0.0147488015 -0.0037364955 -0.07945796 -0.056914665 0.07087835 0.03142929
0.08420629 0.06283326 0.087948434 -0.08396775 0.052628506 -0.08215251 0.07585555 0.008300429
-0.08606392 0.08359376 0.013970718 -0.08138044 -0.06474739 -0.005349325 -0.064433284 0.08555573
0.040704824 0.012345426 -0.008314153 0.019775342 -0.008917356 -0.008935196 0.0741291 -0.034618873
-0.092734896 -0.015422709 -0.054611675 0.10190017 -0.024480447 -0.018055724 0.09051903 0.032110892
0.06700128 -0.002090536 -0.020348758 -0.06819919 0.048338763 0.02956647 -0.03555146 -0.010241957
0.10094547 -0.023658281 -0.039129876 0.010062712 -0.073582225 -0.019867955 -0.007898206 0.032465864
-0.04360533 -0.050779928 0.025257926 -0.079464704 0.07694897 -0.048022497 -0.08798219 -0.052427787
0.07493754 -0.01892391 -0.057045378 0.059272535 0.026253117 0.039702024 0.06434429 -0.09982057
-0.0490041 -0.015546457 -0.007263994 0.038998198 0.056272972 0.05752624 0.008776277 0.060837287
-0.07226347 0.01147977 -0.07512108 0.04728613 0.07626162 0.0014335692 0.026617693 -0.026009632
0.0833436 0.010303535 -0.043505307 -0.003594715 0.05846228 -0.045041543 -0.0703253 -0.06906776
-0.008151563 0.00893041 0.037074715 -0.088345625 0.08076998 -0.044610675 0.04637769 0.053137753
0.015409275 -0.057936978 -0.019525178 0.054138023 -0.10254736 -0.07835389 0.071640976 0.056780357
-0.0752328 0.07744919 0.075929396 0.028046917 0.051708817 0.018323721 -0.113189146 0.06451572
0.096584104 0.09895477 0.019125216 -0.03408781 -0.0081017045 -0.0829509 0.059040714 0.002841404
-0.08731841 0.07949171 -0.090769805 0.06502392 -0.04596663 0.07780288 -0.0048890607 0.03211765
0.028069135 -0.094454914 0.050491005 -0.027540512 0.08777902 -0.09321005 0.049587194 -0.08808862
-0.0038694406 0.072371565 -0.028499765 -0.07784685 -0.09514276 -0.0023665752 -0.089234956 -0.09000522
0.06595906 0.014909492 0.09653722 0.06809184 -0.017631726 -0.06355546 0.08685776 0.03577847
00000000: 9cd9 dbbd b4ab 65bc 283a a4bd c75a 673c
00000010: 71ff b6bd d3b1 963d 60bc 0fbd f5ab 483c
00000020: f956 2ebd 9f2e 87bc ce81 85bd 5940 823d
00000030: 17b4 9bbd 2665 d33d ae5d b1bc c1e7 983d
00000040: 623f c7bd 499c 8e3d 2355 c9bc b491 adbc
00000050: d1b8 c5bd 84ee 863c 669d 60bd ae52 643d
00000060: 2323 1bbd 5116 dc3b 5520 a7bd c055 b0bc
00000070: 246e b5bd a8c0 603d 5c87 063d 49d0 bd3d
00000080: 708f 0d3d 7c61 973d 417b 843d 9548 393c
00000090: 5f3c 62bc 3f72 cc3d 4d3d b93c 57fc 2a3d
000000a0: 5f21 423c 8be1 573d 41ac 983d 88ea 4e3d
000000b0: 6403 3ebb fcb7 09bd b3d6 963d f4de e13c
000000c0: 85ae 843d 9cb7 dbbc 26b7 b1bd 5d6d 95bd
000000d0: 42cc bcbc bad6 5e3d 3e95 34bd 6880 18bc
000000e0: c723 8c3d bedb 813d 2100 ccba 50e7 b53d
000000f0: 077c 27bc 0fcb 01bc be8a 3f3d e2be 723d
00000100: e2c4 0b3c e418 80bd 98bb bd3d dd8d 23bc
00000110: dfac bbbd 3166 9e3d 1fa9 7b3d 783c 7f3a
00000120: 9bc5 073d 4272 8c3d 44ba 3abc 1ae6 b13d
00000130: e41b b3bd b85f 8b3d b7ed ccbc e183 9abd
00000140: 4dac 483d 73ed efbc 0808 81ba 340b 383d
00000150: de9f 6c3d 9cf6 843d 1e53 febb 41e8 903d
00000160: e53f ac3d eee3 b1bb 0a33 f13c 0149 a13d
00000170: 88e3 273d fff4 6dbd 742c 5abd 8009 6abc
00000180: 74aa a13d 8250 12bd f5a4 713c fedf 74bb
00000190: dbba a2bd 5a1f 69bd ab28 913d 00bc 003d
000001a0: 5974 ac3d b9ae 803d 4f1e b43d 49f7 abbd
000001b0: fd90 573d 933f a8bd 285a 9b3d 86fe 073c
000001c0: 4842 b0bd 3533 ab3d 70e5 643c caaa a6bd
000001d0: 489a 84bd 6449 afbb 99f5 83bd d837 af3d
000001e0: 1aba 263d 7844 4a3c 1638 08bc e6ff a13c
000001f0: 1a1a 12bc ee64 12bc ffd0 973d 85cc 0dbd
00000200: cbeb bdbd 88af 7cbc 7eb0 5fbd 09b1 d03d
00000210: 388b c8bc 99e9 93bc 0b62 b93d b686 033d
00000220: f837 893d 6001 09bb 70b2 a6bc 04ac 8bbd
00000230: defe 453d 6235 f23c 689e 11bd e2cd 27bc
00000240: 80bc ce3d 03cf c1bc a646 20bd 13de 243c
00000250: 47b2 96bd 1fc2 a2bc 7a67 01bc edfa 043d
00000260: 819b 32bd 9dfe 4fbd b6e9 ce3c 64be a2bd
00000270: 6c97 9d3d 3db3 44bd 0230 b4bd 85be 56bd
00000280: da78 993d 5106 9bbc 6aa8 69bd c2c7 723d
00000290: c710 d73c 979e 223d f0c6 833d ba6e ccbd
000002a0: 86b8 48bd 91b6 7ebc cc06 eebb 93bc 1f3d
000002b0: 7d7e 663d a2a0 6b3d 60ca 0f3c 8530 793d
000002c0: dffe 93bd a515 3c3c 15d9 99bd 1aaf 413d
000002d0: 0d2f 9c3d 9ae6 bb3a 590d da3c 2712 d5bc
000002e0: 0db0 aa3d 28d0 283c 9f32 32bd 4f95 6bbb
000002f0: 2576 6f3d 7b7d 38bd b606 90bd 6673 8dbd
00000300: 228e 05bc db50 123c a8db 173d 8dee b4bd
00000310: bb6a a53d afb9 36bd 88f6 3d3d f9a6 593d
00000320: 2f77 7c3c 534f 6dbd 44f3 9fbc d5bf 5d3d
00000330: 5a04 d2bd 0178 a0bd 81b8 923d 8592 683d
00000340: a713 9abd ae9d 9e3d df80 9b3d a6c2 e53c
00000350: a0cc 533d a11b 963c b6cf e7bd d120 843d
00000360: e3cd c53d cca8 ca3d 7cac 9c3c a99f 0bbd
00000370: 03bd 04bc 29e2 a9bd add4 713d d936 3a3b
00000380: ffd3 b2bd 8dcc a23d 85e5 b9bd 432b 853d
00000390: 8147 3cbd 1e57 9f3d 6a34 a0bb cc8d 033d
000003a0: 3ef1 e53c 9471 c1bd a8cf 4e3d a49c e1bc
000003b0: 7dc5 b33d e9e4 bebd f11b 4b3d ce67 b4bd
000003c0: 7196 7dbb 8b37 943d 5778 e9bc 2b6e 9fbd
000003d0: 35da c2bd 8b18 1bbb d1c0 b6bd a854 b8bd
000003e0: 8b15 873d f146 743c 4eb5 c53d bc73 8b3d
000003f0: 6970 90bc 5d29 82bd 7be2 b13d 728c 123d

fch.1.0.bias f4 [100]
-0.07244923 -0.049028512 0.083551295 -0.010549103 -0.08904704 0.064420484 -0.04148117 0.04417698
0.026555128 0.035307843 -0.03471533 0.026963243 -0.086945646 -0.071244724 0.023741126 -0.014957149
-0.013141049 -0.07700728 -0.077582434 -0.009049629 -0.0636574 0.027590629 -0.031122157 -0.0475415
-0.043677658 -0.08426153 -0.07847122 -0.09607284 0.092042856 0.06888151 -0.01867169 0.06431509
0.092778906 0.09733904 -0.049819805 0.08703245 -0.083040625 0.06689964 0.007933652 -0.040519685
0.05207378 -0.059822515 -0.023992961 -0.036683936 -0.00029399944 -0.07355994 0.06308137 -0.068911806
0.05497034 -0.01964214 0.093261905 -0.032370538 0.08539977 0.0758219 -0.0810963 0.101549
0.042982575 0.03863551 0.037978355 -0.05121767 0.045545444 0.014881138 -0.002219192 -0.0026946105
-0.06827686 0.047230475 0.03885616 -0.08233687 -0.041500773 -0.0935808 -0.053493932 0.06147722
0.046012796 -0.05711753 0.0043033683 -0.021398515 0.06135272 0.032708693 0.023807926 -0.058107767
-0.008309048 0.05672023 0.012218746 -0.030019894 0.01485239 0.010052967 -0.08690865 0.03738387
0.08647791 0.013489882 0.040603656 -0.08422311 0.08870017 0.04001443 0.083028704 -0.08145204
0.026306076 -0.014837145 -0.0121278865 0.09352783
00000000: 4360 94bd 1fd2 48bd f11c ab3d 25d6 2cbc
00000010: 4b5e b6bd e3ee 833d 29e8 29bd ecf2 343d
00000020: 248a d93c f59e 103d a931 0ebd 05e2 dc3c
00000030: 8f10 b2bd c1e8 91bd c07c c23c d40e 75bc
00000040: 8e4d 57bc feb5 9dbd 8ae3 9ebd e544 14bc
00000050: d05e 82bd be05 e23c e5f3 febc e0ba 42bd
00000060: 58e7 32bd 4f91 acbd 85b5 a0bd d6c1 c4bd
00000070: f780 bc3d c011 8d3d 5ff5 98bc a1b7 833d
00000080: de02 be3d b159 c73d da0f 4cbd 123e b23d
00000090: 3411 aabd ae02 893d 26fc 013c f8f7 25bd
000000a0: 514b 553d 7408 75bd e38c c4bc e541 16bd
000000b0: f023 9ab9 98a6 96bd ce30 813d a221 8dbd
000000c0: 9428 613d 8ee8 a0bc 1900 bf3d f896 04bd
000000d0: 13e6 ae3d 8348 9b3d d115 a6bd ecf8 cf3d
000000e0: 7f0e 303d 4540 1e3d 318f 1b3d 9fc9 51bd
000000f0: dc8d 3a3d 04d0 733c dd6f 11bb 1098 30bb
00000100: bdd4 8bbd be74 413d a327 1f3d 3ca0 a8bd
00000110: b7fc 29bd 4aa7 bfbd 741c 5bbd 8acf 7b3d
00000120: ea77 3c3d 12f4 69bd 4503 8d3b f04b afbc
00000130: fd4c 7b3d 8df9 053d d708 c33c 6902 6ebd
00000140: ac22 08bc 7953 683d 2331 483c 48ec f5bc
00000150: 7057 733c 33b5 243c 2afd b1bd d41f 193d
00000160: 551b b13d ab04 5d3c 0550 263d 2a7d acbd
00000170: 6fa8 b53d 2ce6 233d f40a aa3d 54d0 a6bd
00000180: d77f d73c 7f17 73bc 0bb4 46bc 858b bf3d

fch.2.0.weight f4 [100, 100]
-0.0061486615 -0.07081659 0.07206629 -0.07320319 0.06280497 -0.07657788 -0.056825716 0.08428156
0.064704195 0.09601663 -0.095821925 0.08482164 -0.010592797 -0.089717776 -0.041065283 -0.092898846
-0.030975726 0.056391753 -0.10868744 -0.024527073 -0.037570223 0.098306075 -0.09271789 -0.10730517
0.060267124 0.01017855 0.061595585 0.075810835 0.06763842 0.087696746 0.07889316 0.04214334
0.035893496 -0.042366173 -0.05038405 0.035779476 -0.06768181 0.020763341 -0.05733872 -0.09130953
0.06731356 -0.06711407 -0.10645341 -0.08190006 -0.056004744 -0.047269676 0.10665531 -0.047882833
0.040512394 -0.041732777 0.04793373 -0.024791583 -0.025889592 -0.006163477 -0.053463586 0.033727832
0.037387792 0.038868103 -0.083790235 0.03828185 -0.059765726 0.07822763 -0.04989489 -0.06561169
0.025435649 -0.049246684 -0.0037215203 -0.0487968 -0.025241904 0.043743033 0.081534795 -0.057831123
-0.08511531 0.021959059 0.0052454104 -0.06881482 0.047753584 -0.077189505 -0.03771205 0.010921257
0.052082334 0.026877912 0.1070346 -0.07136822 0.070271835 0.05312271 0.0005205175 -0.0040797982
-0.07198036 0.014633117 0.010074687 0.050192546 0.032029584 -0.078136414 -0.084309876 -0.09063441
0.020470792 -0.0031602725 -0.04299511 -0.06466695 -0.084230356 -0.002874741 -0.05110479 0.07431107
0.107302286 -0.0880277 0.014893059 -0.01132685 -0.09922776 -0.0797808 -0.04534222 -0.057148363
0.09943988 0.009222658 -0.066023566 -0.009898376 -0.008299261 0.04313214 0.041714385 0.07889054
-0.052637592 -0.05690439 0.07045666 0.077744626 -0.028753519 0.019003555 -0.016519336 0.015215546
0.060728256 -0.0052358834 0.10801626 -0.062829114 -0.048490092 -0.052874945 -0.058438614 0.027309818
-0.021363672 -0.07968034 -0.08055729 0.07965142 -0.035230722 -0.054048162 0.02139101 0.039177697
0.11195115 0.059075363 -0.113556445 -0.043706093 0.007028783 0.06403645 0.077684745 0.105074465
0.010037979 -0.057036635 0.010614805 -0.054750655 -0.028314784 0.024452947 0.021597827 -0.066537164
-0.020337956 0.050410256 -0.027289912 -0.0057324786 0.040970016 0.0651448 -0.05793431 0.04964789
0.023040779 0.1147384 -0.07603918 -0.10903922 0.04623676 0.05650004 -0.07799177 0.10018933
-0.09377094 -0.008439598 0.04812989 0.020478858 -0.026155308 -0.08260386 -0.042918026 -0.0050062393
0.093402326 -0.047456425 -0.07380772 -0.037674315 0.078744546 0.06465228 -0.09221105 0.06885681
0.030973341 -0.057832573 -0.051020384 0.08391193 0.06381167 -0.07851275 -0.004790692 -0.015616615
0.056807213 -0.031560846 0.03304414 0.10466363 0.051874716 -0.08544201 0.084027305 -0.036781944
-0.010451016 0.0065483497 -0.07677002 0.066790804 0.007827003 -0.11078151 -0.022162816 -0.03219764
-0.07694674 -0.027830208 -0.053298343 -0.07144302 0.05612727 -0.0672912 0.06753371 -0.11188435
0.019504562 0.052198425 -0.07684496 0.007414751 0.060793094 -0.08372158 0.045881584 -0.016383287
0.014616483 0.066658765 -0.034455217 -0.057819474 -0.038565323 -0.04957426 0.062204327 0.026195414
0.035984028 -0.0069893994 -0.02910133 0.030997256 -0.007749561 0.10163874 0.07588111 -0.013631115
-0.04655622 -0.018762486 0.07162975 -0.06920838 0.010286356 0.051512297 0.05854199 -0.027262814
00000000: b67a c9bb 4a08 91bd 7e97 933d 8eeb 95bd
00000010: e49f 803d ddd4 9cbd 15c2 68bd cf9b ac3d
00000020: a283 843d 5ea4 c43d 493e c4bd f8b6 ad3d
00000030: 698d 2dbc f4bd b7bd 1234 28bd c041 bebd
00000040: cec0 fdbc 0afb 663d 8597 debd 00ed c8bc
00000050: 3ce3 19bd b254 c93d e1e2 bdbd d0c2 dbbd
00000060: a9da 763d efc3 263c a74b 7c3d b642 9b3d
00000070: 0386 8a3d 5a9a b33d bd92 a13d 7f9e 2c3d
00000080: 0f05 133d 2788 2dbd 815f 4ebd 808d 123d
00000090: c39c 8abd e217 aa3c 01dc 6abd 7e00 bbbd
000000a0: b1db 893d 1a73 89bd 3f04 dabd 38bb a7bd
000000b0: 3b65 65bd d99d 41bd 196e da3d ca20 44bd
000000c0: 53f0 253d fdef 2abd 2956 443d b817 cbbc
000000d0: 6916 d4bc fef6 c9bb a2fc 5abd 3226 0a3d
000000e0: f123 193d 2934 1f3d 379a abbd 6ecd 1c3d
000000f0: e8cc 74bd cf35 a03d 965e 4cbd 6c5f 86bd
00000100: 6c5e d03c e4b6 49bd c0e4 73bb 27df 47bd
00000110: 1cc8 cebc e52b 333d b7fb a63d 54e0 6cbd
00000120: f050 aebd 7ce3 b33c b1e1 ab3b c9ee 8cbd
00000130: 4399 433d 8815 9ebd f377 1abd 12ef 323c
00000140: 4954 553d 112f dc3c f534 db3d 8029 92bd
00000150: aeea 8f3d 3397 593d 5773 083a d4af 85bb
00000160: 706a 93bd bebf 6f3c 4d10 253c b396 4d3d
00000170: 7431 033d fc05 a0bd a8aa acbd 899e b9bd
00000180: 5db2 a73c 931c 4fbb a41b 30bd 1b70 84bd
00000190: f780 acbd 2766 3cbb 4253 51bd 6730 983d
000001a0: 4dc1 db3d de47 b4bd 0402 743c 4194 39bc
000001b0: ed37 cbbd 1e64 a3bd c4b8 39bd 6714 6abd
000001c0: 23a7 cb3d a21a 173c 5d37 87bd cc2c 22bc
000001d0: a0f9 07bc 54ab 303d b4dc 2a3d 5d91 a13d
000001e0: 849a 57bd 9414 69bd 954b 903d 9338 9f3d
000001f0: 808c ebbc 58ad 9b3c 8f53 87bc a04a 793c
00000200: 31be 783d c691 abbb a137 dd3d 8dac 80bd
00000210: 8c9d 46bd 6693 58bd 545d 6fbd d7b8 df3c
00000220: de02 afbc 722f a3bd 38fb a4bd 4920 a33d
00000230: 174e 10bd 9b61 5dbd 333c af3c cb78 203d
00000240: a546 e53d 02f9 713d 4890 e8bd 2905 33bd
00000250: b551 e63b 8b25 833d 2e19 9f3d 4831 d73d
00000260: 5676 243c 3f9f 69bd b8e9 2d3c 3942 60bd
00000270: 68f4 e7bc 8c51 c83c eded b03c a344 88bd
00000280: c99b a6bc fc7a 4e3d 188f dfbc 84d7 bbbb
00000290: 2dd0 273d a36a 853d 874c 6dbd 965b 4b3d
000002a0: 04c0 bc3c f7fb ea3d 6eba 9bbd f44f dfbd
000002b0: c262 3d3d 966c 673d 26ba 9fbd 1030 cd3d
000002c0: fb0a c0bd 3d46 0abc d923 453d 47c3 a73c
000002d0: a843 d6bc 362c a9bd d0ca 2fbd 610b a4bb
000002e0: b849 bf3d ab61 42bd 8028 97bd 6250 1abd
000002f0: d244 a13d 6a68 843d 26d9 bcbd cd04 8d3d
00000300: cebb fd3c d9e1 6cbd c0fa 50bd 05da ab3d
00000310: b1af 823d 4bcb a0bd 3dfb 9cbb d5dc 7fbc
00000320: aeae 683d f245 01bd 4b59 073d e359 d63d
00000330: 957a 543d 38fc aebd 8216 ac3d aaa8 16bd
00000340: bd3a 2bbc 8a93 d63b 9a39 9dbd 9ec9 883d
00000350: d43c 003c 6be1 e2bd cb8e b5bc ace1 03bd
00000360: 4196 9dbd 2dfc e3bc 5d4f 5abd b850 92bd
00000370: b5e5 653d f8cf 89bd 1d4f 8a3d 9f23 e5bd
00000380: 08c8 9f3c 04ce 553d e460 9dbd 71f7 f23b
00000390: 2e02 793d 3876 abbd 54ee 3b3d 3e36 86bc
000003a0: f979 6f3c 6484 883d ea20 0dbd 1dd4 6cbd
000003b0: acf6 1dbd 610e 4bbd f7c9 7e3d c497 d63c
000003c0: fd63 133d 5507 e5bb ea65 eebc f5ed fd3c
000003d0: 08f0 fdbb f927 d03d 8e67 9b3d 0a55 5fbc
000003e0: bcb1 3ebd c9b3 99bc 9eb2 923d 20bd 8dbd
000003f0: 1b88 283c 8ffe 523d bac9 6f3d 4456 dfbc

fch.2.0.bias f4 [100]
0.026808228 -0.10204162 -0.0046343687 0.09060841 -0.07181886 -0.09859187 -0.005322516 0.027817138
-0.027660802 0.0053593665 0.047081113 0.009110471 -0.041551102 -0.039002106 0.022473162 0.04137013
0.06341165 0.06831771 -0.004046916 0.08001641 0.08366676 0.03941122 0.09670706 -0.06509276
0.05509121 0.0947781 -0.015870383 -0.0071654352 -0.07201885 0.06535822 0.060213994 0.006585013
-0.037640583 0.059136305 -0.07413823 -0.077959016 -0.03702382 -0.048020214 -0.03603721 0.071837336
-0.03332771 0.02427688 0.095317006 -0.08234708 -0.05952765 -0.043305594 -0.038515415 0.045707442
-0.053892415 -0.07050015 -0.029495217 -0.05202614 0.024648499 -0.010641708 -0.06072862 0.017651115
-0.061207615 0.07955693 0.052536033 -0.019449241 -0.0708862 0.06863757 -0.011044434 0.06348298
-0.03784033 -0.081379816 0.05008277 0.019209715 0.033844702 -0.018606491 0.050780542 0.041016538
-0.054402933 -0.07366397 -0.0031525602 0.023761429 -0.039752036 0.08584722 -0.01855113 -0.01285849
0.04370165 -0.009219633 -0.0440093 0.03923264 0.046454076 0.0102031445 -0.060400303 0.052652497
0.039052557 0.015315507 -0.018692894 -0.035140637 -0.006647976 0.01398876 -0.055639092 -0.071254835
-0.024475638 -0.08928627 0.017630542 0.032333136
00000000: ee9c db3c 32fb d0bd e7db 97bb e790 b93d
00000010: c415 93bd 89ea c9bd 8068 aebb c4e0 e33c
00000020: e898 e2bc a09d af3b 20d8 403d 1644 153c
00000030: 7d31 2abd acc0 1fbd a319 b83c ba73 293d
00000040: f8dd 813d 28ea 8b3d fe9b 84bb a5df a33d
00000050: 7a59 ab3d a96d 213d 5a0e c63d 5a4f 85bd
00000060: 52a7 613d 051b c23d 9b02 82bc 07cc eabb
00000070: 9e7e 93bd 88da 853d f3a2 763d 18c7 d73b
00000080: 032d 1abd e938 723d c9d5 97bd faa8 9fbd
00000090: 4aa6 17bd d8b0 44bd c19b 13bd 741f 933d
000000a0: a382 08bd 4fe0 c63c 9035 c33d 96a5 a8bd
000000b0: 44d3 73bd 3561 31bd 57c2 1dbd ba37 3b3d
000000c0: 4bbe 5cbd 6262 90bd f49f f1bc 5d19 55bd
000000d0: a6eb c93c 8f5a 2ebc 93be 78bd 1299 903c
000000e0: d6b4 7abd beee a23d 0630 573d 0454 9fbc
000000f0: c92c 91bd db91 8c3d b7f3 34bc 5d03 823d
00000100: 76fe 1abd 76aa a6bd 9723 4d3d b15d 9d3c
00000110: bea0 0a3d a46c 98bc 42ff 4f3d f500 283d
00000120: 9cd5 5ebd 23dd 96bd 2f9b 4ebb 54a7 c23c
00000130: 08d3 22bd abd0 af3d 8af8 97bc 6bac 52bc
00000140: 8000 333d f20d 17bc 1943 34bd 68b2 203d
00000150: a146 3e3d 172b 273c 4f66 77bd 25aa 573d
00000160: 93f5 1f3d e4ed 7a3c d721 99bc a1ef 0fbd
00000170: 44d7 d9bb 1d31 653c d1e5 63bd 0eee 91bd
00000180: 2281 c8bc b8db b6bd ed6d 903c c06f 043d

fch.3.0.weight f4 [100, 100]
-0.06484999 -0.097816385 0.06073677 -0.07817407 0.0037024878 0.033931084 0.048485618 -0.08621974
-0.06401644 -0.045044594 -0.018951017 0.045079485 -0.038632467 -0.04165626 0.09070953 0.038704075
-0.051951513 -0.07967669 -0.029872594 -0.10130912 -0.03255428 -0.079707906 0.018552609 -0.03142158
0.066355176 -0.013456935 -0.10580655 -0.036418967 0.056870636 0.039680667 0.0076048826 0.09364528
-0.029292105 -0.09299039 0.0770729 0.051496405 -0.10636261 -0.049934812 -0.017992994 -0.062609226
0.09495739 0.09321325 0.01740951 0.09757361 -0.083186634 -0.096485265 -0.030287253 -0.06892498
-0.08553314 -0.043313224 0.087194845 -0.07850176 -0.0747185 -0.018482504 -0.022079026 0.05237356
0.06865041 -0.07824519 -0.005951193 -0.07168302 0.030454392 0.01940863 -0.046003837 0.102913335
0.045225367 -0.08295372 0.06416102 0.02247794 -0.08308995 0.04751144 0.0025183058 0.029061412
-0.06281344 0.0024992418 -0.07559647 0.07647912 -0.021551851 0.0061667534 0.05345516 -0.05321431
-0.016086012 0.026480518 -0.07345521 -0.098335445 -0.0833121 -0.02358761 0.04712826 -0.033017807
0.08063059 -0.06661967 0.039925568 0.012302249 0.029321205 0.019262314 -0.0023435825 -0.012903477
0.04265704 0.050007004 0.06149407 -0.07135289 0.041955803 -0.050512597 -0.10245494 0.061951485
0.09093054 0.10285039 -0.055303056 0.08120406 -0.06814055 0.0110068 0.063819826 0.07925219
0.07704481 -0.055069216 -0.08122606 0.08933664 0.08412846 0.029743712 -0.04884215 0.09186732
-0.09263899 0.10436508 -0.029731685 0.10144513 -0.048152927 -0.067272834 -0.078021474 -0.012379699
0.04174921 0.086152874 -0.053571783 -0.08182035 -0.025165707 0.03660083 0.026845168 -0.08353671
0.07889982 0.056918483 0.036998454 -0.012932152 0.09742226 0.08860516 -0.041865025 -0.07473697
0.06666216 -0.05367094 -0.09819459 -0.040069964 0.030369978 0.017463744 -0.027508888 0.061945006
0.084712036 0.053937513 0.051596954 0.02780608 0.037769374 -0.07116063 -0.015225593 0.040515974
-0.04398597 0.034626286 -0.001078392 0.043124694 0.07319921 -0.016155511 0.016602201 0.08831183
0.07632301 -0.009255645 -0.009223274 -0.01309933 0.02755325 -0.015297479 -0.057990227 0.07688249
0.01090242 0.0774077 -0.012424529 -0.014806059 -0.07853559 -0.030686248 -0.032655343 -0.0013850519
-0.03595382 -0.087296486 -0.0076042265 0.018944899 0.09040661 0.06449797 0.008714366 -0.004269
-0.04982472 -0.0023384003 0.015258153 -0.11545419 0.04149855 -0.053507917 0.062355023 -0.010521772
-0.04683122 0.036561005 -0.061923586 -0.026875013 0.06477652 -0.07641271 0.022250794 -0.0014976029
-0.08297213 -0.03404271 -0.05648116 0.04273708 0.08245404 -0.08795324 0.0150736505 0.030814031
0.06297439 -0.007505674 0.070529945 -0.04730606 0.060496017 -0.11878329 0.047350895 -0.0991094
-0.07546612 -0.028623244 0.058622874 -0.082725145 -0.05263374 -0.058461472 -0.07400921 0.08413762
-0.07803462 -0.08012523 -0.07790354 -0.033811428 -0.091645956 -0.03176118 0.03514363 0.018743187
0.04163976 0.093827896 0.09859589 0.0472262 0.07524839 0.027185122 0.050394986 0.030700099
0.087249056 -0.09643109 0.050217606 0.07502418 0.018657656 0.016496865 0.08409143 0.10062104
00000000: 12d0 84bd f553 c8bd 1fc7 783d ba19 a0bd
00000010: 70a5 723b 52fb 0a3d db98 463d fa93 b0bd
00000020: 0d1b 83bd ae80 38bd 2a3f 9bbc 44a5 383d
00000030: 143d 1ebd c19f 2abd ebc5 b93d 2a88 1e3d
00000040: 1ccb 54bd 882d a3bd 5fb7 f4bc 287b cfbd
00000050: a357 05bd e63d a3bd a4fb 973c eab3 00bd
00000060: 39e5 873d 7a7a 5cbc 1bb1 d8bd 0e2c 15bd
00000070: 2ff1 683d 3288 223d 6132 f93b 19c9 bf3d
00000080: fff5 efbc bf71 bebd 66d8 9d3d e5ed 523d
00000090: a4d4 d9bd 7288 4cbd 0b66 93bc 4439 80bd
000000a0: 0579 c23d 97e6 be3d 649e 8e3c acd4 c73d
000000b0: c15d aabd 119a c5bd f91c f8bc 8a28 8dbd
000000c0: 002c afbd 3569 31bd 3693 b23d 88c5 a0bd
000000d0: 0306 99bd 9f68 97bc 13df b4bc a885 563d
000000e0: 9698 8c3d 043f a0bd 3a02 c3bb 8cce 92bd
000000f0: 7d7b f93c d9fe 9e3c 856e 3cbd 3ac4 d23d
00000100: 3c3e 393d a4e3 a9bd da66 833d a823 b83c
00000110: 102b aabd 5b9b 423d 290a 253b 3312 ee3c
00000120: 55a4 80bd 52ca 233b 52d2 9abd 16a1 9c3d
00000130: 828d b0bc 7a12 ca3b ccf3 5a3d 40f7 59bd
00000140: d0c6 83bc aced d83c af6f 96bd 1864 c9bd
00000150: 899f aabd ce3a c1bc 9009 413d ae3d 07bd
00000160: a721 a53d e56f 88bd fe88 233d 5f8f 493c
00000170: 0633 f03c 00cc 9d3c ca96 19bb 1b69 53bc
00000180: 26b9 2e3d 25d4 4c3d 35e1 7b3d 7721 92bd
00000190: d9d9 2b3d 4ce6 4ebd e5d3 d1bd d7c0 7d3d
000001a0: ca39 ba3d 3aa3 d23d 7585 62bd 504e a63d
000001b0: 468d 8bbd de55 343c f8b3 823d f94e a23d
000001c0: abc9 9d3d 4290 61bd d959 a6bd 21f6 b63d
000001d0: 8b4b ac3d 16a9 f33c b50e 48bd ef24 bc3d
000001e0: 83b9 bdbd 5cbd d53d dd8f f3bc 77c2 cf3d
000001f0: 013c 45bd 57c6 89bd b9c9 9fbd 39d4 4abc
00000200: 3801 2b3d eb70 b03d 166e 5bbd 6d91 a7bd
00000210: 5028 cebc c0ea 153d 66ea db3c 4b15 abbd
00000220: 3b96 a13d 5b23 693d b18b 173d 60e1 53bc
00000230: 5285 c73d 9f76 b53d a97a 2bbd b20f 99bd
00000240: 2c86 883d 0fd6 5bbd 3f1a c9bd 6720 24bd
00000250: 76ca f83c 2010 8f3c 525a e1bc 0cba 7d3d
00000260: 817d ad3d 95ed 5c3d 5457 533d 94c9 e33c
00000270: 0fb4 1a3d aabc 91bd c474 79bc 14f4 253d
00000280: a22a 34bd 4bd4 0d3d d558 8dba 85a3 303d
00000290: 78e9 953d 9058 84bc 5701 883c d5dc b43d
000002a0: 3d4f 9c3d fda4 17bc 371d 17bc 929e 56bc
000002b0: 5ab7 e13c 47a2 7abc 2987 6dbd 9174 9d3d
000002c0: 10a0 323c ee87 9e3d 4090 4bbc 1d95 72bc
000002d0: 44d7 a0bd ba61 fbbc 9cc1 05bd a18a b5ba
000002e0: 5044 13bd 80c8 b2bd e02c f9bb 5532 9b3c
000002f0: 1a27 b93d 8317 843d b3c6 0e3c f8e2 8bbb
00000300: 0115 4cbd d93f 19bb 55fd 793c 3f73 ecbd
00000310: 62fa 293d 1e2b 5bbd fb67 7f3d 8363 2cbc
00000320: 18d2 3fbd fec0 153d 96a3 7dbd fd28 dcbc
00000330: 8da9 843d 447e 9cbd 4c47 b63c 374b c4ba
00000340: 4bed a9bd 5e70 0bbd ca58 67bd 140d 2f3d
00000350: aadd a83d d420 b4bd 79f7 763c b56d fc3c
00000360: b8f8 803d 28f2 f5bb 0172 903d 00c4 41bd
00000370: acca 773d a744 f3bd 03f3 413d def9 cabd
00000380: fb8d 9abd 4b7b eabc 8a1e 703d cd6b a9bd
00000390: 7a96 57bd 4c75 6fbd 2492 97bd 5850 ac3d
000003a0: 9dd0 9fbd b218 a4bd e48b 9fbd da7d 0abd
000003b0: e0b0 bbbd 0318 02bd c4f2 0f3d 508b 993c
000003c0: 748e 2a3d d728 c03d a4ec c93d 4370 413d
000003d0: d41b 9a3d 55b3 de3c f96a 4e3d c67e fb3c
000003e0: a2af b23d aa7d c5bd fab0 4d3d 47a6 993d
000003f0: f1d7 983c 6f24 873c 2138 ac3d 6712 ce3d

fch.3.0.bias f4 [100]
0.06049542 0.03295047 0.03505341 0.08280924 -0.07868722 -0.09465342 0.08879722 -0.09061589
0.0859038 0.043844912 0.001982119 -0.07373706 0.09224848 -0.01993744 0.013155096 0.063904025
0.06272694 -0.027161386 -0.037994273 -0.026530541 -0.02760258 0.0068603805 0.009341991 -0.06231483
0.07674207 0.04780678 0.06954335 0.08365996 0.018818157 -0.08329755 0.014921194 0.011178078
-0.077795535 0.025204679 -0.03318969 -0.09474593 -0.04159699 -0.09517525 -0.08439723 0.046770066
-0.08375138 0.028797647 -0.015637897 -0.04956499 0.09827996 0.019029237 -0.013924374 0.044167466
0.0022092229 0.0037669013 -0.084714755 0.04564593 0.00037176898 -0.060319863 -0.07100637 -0.021620473
-0.06639746 -0.0067541325 -0.025053695 -0.05668266 0.050519515 0.08702658 0.01937376 -0.09194857
-0.0051282505 -0.03621288 -0.058790967 0.081400104 0.026731296 -0.08303533 0.018637149 -0.07924782
-0.007594603 -0.059915517 -0.04488806 -0.08369311 -0.003137625 0.055363085 0.056570012 -0.06573779
0.05619138 -0.07249555 -0.05377474 -0.03582201 -0.082151584 -0.02580739 0.04694063 -0.025127282
0.04361442 -0.018457297 -0.039841082 -0.054104906 0.040224884 -0.005969512 -0.066224806 -0.042616393
0.08914644 -0.08400297 -0.05424175 0.050524544
00000000: 0cca 773d 12f7 063d 2a94 0f3d e497 a93d
00000010: c426 a1bd a7d9 c1bd 51db b53d d394 b9bd
00000020: 55ee af3d b996 333d 70e6 013b 7503 97bd
00000030: c5ec bc3d d853 a3bc 7988 573c 1de0 823d
00000040: fb76 803d 8e81 debc e29f 1bbd 9456 d9bc
00000050: ce1e e2bc 0bcd e03b 260f 193c d63d 7fbd
00000060: f22a 9d3d 0bd1 433d be6c 8e3d ea55 ab3d
00000070: 8928 9a3c e897 aabd 0678 743c 4224 373c
00000080: 4453 9fbd 0b7a ce3c eaf1 07bd 270a c2bd
00000090: 9b61 2abd 3eeb c2bd 74d8 acbd f891 3f3d
000000a0: d885 abbd 0be9 eb3c 0c1b 80bc a904 4bbd
000000b0: 0147 c93d 34e3 9b3c 0f23 64bc f2e8 343d
000000c0: 9cc8 103b 1ede 763b ee7e adbd 3af7 3a3d
000000d0: fde9 c239 f611 77bd ca6b 91bd 6b1d b1bc
000000e0: 64fb 87bd c551 ddbb 683d cdbc 142c 68bd
000000f0: 8ded 4e3d fe3a b23d b8b5 9e3c 884f bcbd
00000100: e20a a8bb f553 14bd ccce 70bd 19b5 a63d
00000110: 97fb da3c 6d0e aabd efac 983c ae4c a2bd
00000120: 26dc f8bb f969 75bd 8bdc 37bd 4b67 abbd
00000130: 9da0 4dbb 67c4 623d f5b5 673d 89a1 86bd
00000140: ef28 663d 8c78 94bd e742 5cbd 1aba 12bd
00000150: 173f a8bd 056a d3bc d144 403d bbd7 cdbc
00000160: 09a5 323d c233 97bc 6730 23bd 1b9d 5dbd
00000170: d9c2 243d e59b c3bb dfa0 87bd 878e 2ebd
00000180: 6992 b63d c009 acbd 992c 5ebd d3f2 4e3d

fch.4.0.weight f4 [100, 100]
0.069964714 0.033633884 0.0809593 -0.029811 -0.089452945 -0.03573646 -0.012112386 0.04993839
-0.10079036 -0.067725055 -0.01594203 -0.09592521 0.04323947 0.050410334 -0.055126157 0.09379415
0.030118689 0.07492083 -0.090455405 -0.03193629 0.0030643772 -0.050143033 -0.081507474 -0.041212574
0.012636194 -0.08687982 -0.07855514 0.002737284 -0.046579838 0.06287266 -0.018205466 0.06737997
0.022417082 0.003317354 -0.0629506 0.039312363 0.032699518 -0.01899629 -0.022790002 0.03469223
0.082554944 -0.048003662 -0.06415557 0.031598266 0.0846695 -0.06872048 0.008077883 0.033310145
-0.08098749 0.030417914 -0.05921201 -0.09448734 -0.04366352 0.020140164 0.069557086 -0.023426548
0.024801293 0.0940842 0.035137836 -0.0032313776 0.05511474 0.06326362 -0.07592974 0.04073834
0.038756587 0.021430798 0.100785896 -0.06375936 -0.013965825 -0.085940786 0.07670319 0.053836234
0.060739238 -0.053577796 -0.0015336483 -0.039748635 0.08256901 0.00043559994 0.046999052 -0.08003891
0.087642305 0.03159899 -0.084570065 -0.03299251 -0.07503936 -0.018071849 0.029300362 -0.07078308
-0.004852685 -0.06432717 -0.020636918 0.029815778 -0.047020454 0.0992698 0.07088899 -0.0312001
-0.055565674 0.06321678 -0.041124772 0.032199252 0.09839145 -0.09129959 0.048645876 0.0449738
0.06653925 0.062215798 0.02966235 -0.02752573 -0.036419306 0.054084476 0.024957424 0.031762354
0.068033405 0.03432464 0.0035017265 0.05626404 -0.023740154 0.06603754 -0.06235146 0.013934128
-0.06776184 -0.047706157 0.013744554 -0.034291312 0.058033075 0.07458404 -0.040180735 -0.07976408
0.061533198 0.0028401988 -0.042881425 0.011856318 0.08766005 0.037173074 0.071473666 0.025423776
0.033238426 -0.04829011 0.023172548 0.034250952 0.027894415 0.09197363 0.06381419 -0.09865621
0.06961563 -0.02817804 0.03865202 0.0029604079 -0.07928522 0.023935264 -0.044945102 0.035505757
0.06668628 0.087327585 0.07283682 -0.0016016455 0.070455104 0.062718146 -0.07096592 0.054413393
-0.018597014 0.04317936 -0.0931456 -0.08910508 0.043445803 -0.062096108 0.08576 -0.025320685
-0.08441384 -0.02166721 0.003584242 -0.053847037 -0.04902398 0.030498674 -0.04984758 -0.09595911
0.087597005 -0.038460355 -0.07259277 -0.05223522 -0.020736093 -0.03297582 -0.024179304 0.07908679
-0.032827325 -0.05581886 -0.037894376 0.04163132 0.07073707 -0.048479397 0.009054521 -0.051340412
-0.06957038 -0.0736052 0.075709745 0.021592189 -0.02918343 -0.07814012 -0.031374335 -0.099908955
0.044372607 -0.05359326 0.064651646 0.042058934 0.03864353 0.026773844 -0.013196899 0.05912527
0.09712557 -0.013527145 0.011974571 0.087446496 0.076238506 0.046243407 -0.08569162 0.025083113
0.06126661 -0.0066129803 0.07384222 -0.07555718 0.046349764 0.09915589 -0.054309633 -0.07020202
-0.04703492 0.07366626 -0.06998265 -0.011764257 0.0492131 0.038847387 0.05234009 0.07458232
0.031845402 -0.024657942 -0.09221883 0.08095115 0.0061686486 -0.06372921 0.07019937 -0.029816208
0.03478361 -0.06261855 0.031061199 0.069912076 -0.013571225 0.050938115 -0.05298779 0.0775448
0.06518712 -0.05438395 0.09124451 -0.03091936 0.08477913 -0.047263328 -0.06155464 0.051329844
00000000: a949 8f3d afc3 093d fdcd a53d 3336 f4bc
00000010: 1b33 b7bd 6560 12bd 0773 46bc 328c 4c3d
00000020: 2d6b cebd 6fb3 8abd dc98 82bc 7074 c4bd
00000030: df1b 313d 117b 4e3d f7cb 61bd 2617 c03d
00000040: 78bb f63c 1870 993d af40 b9bd a1cf 02bd
00000050: b8d3 483b c862 4dbd 64ed a6bd 84ce 28bd
00000060: 0a08 4f3c 0cee b1bd 84e1 a0bd 0164 333b
00000070: 80ca 3ebd 62c3 803d a123 95bc 82fe 893d
00000080: 07a4 b73c f767 593b 3fec 80bd 0006 213d
00000090: eeef 053d 1c9e 9bbc 19b2 babc 7119 0e3d
000000a0: 9112 a93d 7d9f 44bd ff63 83bd 2f6d 013d
000000b0: 3467 ad3d 53bd 8cbd 1959 043c 3870 083d
000000c0: c5dc a5bd fd2e f93c 4b88 72bd 9482 c1bd
000000d0: 85d8 32bd fcfc a43c f273 8e3d 08e9 bfbc
000000e0: 152c cb3c 38af c03d b1ec 0f3d 85c5 53bb
000000f0: febf 613d 5b90 813d 0d81 9bbd 3fdd 263d
00000100: 3abf 1e3d a48f af3c d668 ce3d 4494 82bd
00000110: ead0 64bc b901 b0bd 9016 9d3d 6283 5c3d
00000120: b5c9 783d 6474 5bbd b304 c9ba 77cf 22bd
00000130: f119 a93d 3c61 e439 1482 403d 71eb a3bd
00000140: cf7d b33d f16d 013d 1233 adbd 2723 07bd
00000150: 3cae 99bd 6a0b 94bc 5007 f03c b8f6 90bd
00000160: 4603 9fbb f7bd 83bd c10e a9bc 3840 f43c
00000170: 8598 40bd f74d cb3d 3f2e 913d 5a97 ffbc
00000180: d598 63bd cd77 813d 7372 28bd 5de3 033d
00000190: 7581 c93d 48fb babd e640 473d 7336 383d
000001a0: bb45 883d fed5 7e3d 75fe f23c a47d e1bc
000001b0: 692c 15bd af87 5d3d 8373 cc3c 3e19 023d
000001c0: 1955 8b3d fe97 0c3d 397d 653b 1f75 663d
000001d0: b67a c2bc b13e 873d 3f64 7fbd f84b 643c
000001e0: b8c6 8abd 8867 43bd d630 613c 0c75 0cbd
000001f0: 17b4 6d3d 84bf 983d 8e94 24bd 5a5b a3bd
00000200: 3c0a 7c3d a122 3a3b 6fa4 2fbd 0141 423c
00000210: 1d87 b33d cb42 183d c960 923d 8645 d03c
00000220: 0425 083d dacb 45bd 5bd4 bd3c ba4a 0c3d
00000230: d482 e43c ac5c bc3d 04b1 823d 440c cabd
00000240: a492 8e3d a2d5 e6bc 9551 1e3d 6703 423b
00000250: 4a60 a2bd e313 c43c 5b18 38bd 7c6e 113d
00000260: d192 883d ced8 b23d 782b 953d 4eee d1ba
00000270: c44a 903d 5f72 803d 9556 91bd 94e0 5e3d
00000280: c458 98bc d7dc 303d 1fc3 bebd b97c b6bd
00000290: 3af4 313d 7d58 7ebd f0a2 af3d 536d cfbc
000002a0: 2ae1 acbd 6f7f b1bc 9ae5 6a3b b68e 5cbd
000002b0: 5ecd 48bd 5bd8 f93c fa2c 4cbd 3686 c4bd
000002c0: 0f66 b33d 9b88 1dbd 85ab 94bd 99f4 55bd
000002d0: bdde a9bc a711 07bd ad13 c6bc 41f8 a13d
000002e0: f275 06bd 51a2 64bd 2237 1bbd 9a85 2a3d
000002f0: 99de 903d 5592 46bd 6a59 143c 534a 52bd
00000300: ea7a 8ebd 53be 96bd b60d 9b3d 1ae2 b03c
00000310: 1712 efbc ed07 a0bd 6082 00bd 119d ccbd
00000320: 0dc0 353d 9b84 5bbd 1568 843d fd45 2c3d
00000330: ae48 1e3d d254 db3c ce37 58bc 572d 723d
00000340: c5e9 c63d f5a0 5dbc fe30 443c 2617 b33d
00000350: ef22 9c3d ba69 3d3d 177f afbd 1a7b cd3c
00000360: b2f2 7a3d b3b1 d8bb 973a 973d b9bd 9abd
00000370: 40d9 3d3d 3e12 cb3d c773 5ebd 14c6 8fbd
00000380: b0a7 40bd 56de 963d 1053 8fbd dfbe 40bc
00000390: ad93 493d 701e 1f3d 9062 563d 9ebe 983d
000003a0: 5370 023d 74ff c9bc 3add bcbd b7c9 a53d
000003b0: 6022 ca3b 7684 82bd b0c4 8f3d 1f41 f4bc
000003c0: 4279 0e3d 283e 80bd 0e74 fe3c 102e 8f3d
000003d0: d859 5ebc 7ca4 503d ba09 59bd cfcf 9e3d
000003e0: d380 853d b4c1 5ebd 67de ba3d 994a fdbc
000003f0: aea0 ad3d 3197 41bd b820 7cbd 3e3f 523d
