test.pt (torch, 168130 bytes, 12 tensors)

fcs.0.weight f4 [100, 2]
000000 24 7f 23 bd 91 83 bd be 13 e6 85 bd 4d 47 01 3e
       -0.039916173 -0.3701444 -0.06538024 0.12624855
000010 fe 52 03 be d5 fe 06 bf f5 ce 46 3e e4 db b9 be
       -0.12824628 -0.5273259 0.19414885 -0.36300576
000020 f1 c8 a4 3e 2e 6b 9e 3e eb 21 d4 be 80 76 92 3e
       0.32184556 0.30941147 -0.41432127 0.28606033
000030 ef 70 fa 3d 22 1e 44 3e 8a 9d a2 3d 5f 89 07 bf
       0.122285716 0.1915212 0.079402044 -0.52943987
000040 99 4b 2c 3f ad 03 f7 3e 6a 72 06 bf 3a 7b 91 bd
       0.6730285 0.48244992 -0.5251833 -0.07103582
000050 ea eb 69 3e 48 33 20 bf 82 90 f4 be 39 f9 e5 3e
       0.228439 -0.6257825 -0.477665 0.44916704
000060 11 f6 9f 3e 43 99 a6 be 37 4d 8f be 72 04 20 3e
       0.3124242 -0.32538804 -0.27988598 0.15626696
000070 b3 eb db 3d 0b 22 19 3e fb 04 c6 bd 3a 3a 09 3f
       0.107383154 0.14954393 -0.09668919 0.5360447
000080 91 82 80 be ae 1c ac be 9e 46 ae be c4 29 e0 be
       -0.25099614 -0.3361563 -0.34038252 -0.43781865
000090 ed a3 56 3e 83 41 e4 be 75 d3 ff be 34 7f b6 3e
       0.2096097 -0.4458123 -0.49966016 0.35643923
0000a0 a9 5c ab 3e 9b 70 ed be 10 60 7b be 01 94 08 bf
       0.33469132 -0.46374974 -0.24548364 -0.53350836
0000b0 80 c2 29 3e ca 6e 76 bd b8 a6 bd 3e 57 f5 e9 be
       0.16578102 -0.06016425 0.3704126 -0.45694992
0000c0 0b c5 74 be d5 80 22 3f 2b 9f 0d 3f b6 eb 2f 3f
       -0.23903291 0.6347783 0.55320996 0.6871904
0000d0 5e 36 37 3e 16 1c 07 3f 34 c8 1e 3f 1a 21 0a bf
       0.17891833 0.5277723 0.62024236 -0.5395676
0000e0 d6 65 03 bf 07 8a 20 3f 1d c8 80 3e 82 7b 99 3d
       -0.51327264 0.62710613 0.25152674 0.0749426
0000f0 aa 52 03 3f f7 1f 1a bf 1c fa fe 3e c0 fa b2 3e
       0.5129801 -0.60205024 0.49800193 0.34956932
000100 52 fa 6a 3e 12 ff d9 3d ba 04 27 be 32 d7 9d 3e
       0.22947052 0.10644354 -0.16310397 0.30828243
000110 56 a5 0c 3f b2 40 a0 3d f4 c6 9d be 45 eb b4 be
       0.5493978 0.0782484 -0.30815852 -0.35335746
000120 ac cf 16 bd 67 d2 05 bf 48 dd d6 be f8 16 4b 3e
       -0.036819145 -0.52274173 -0.419657 0.1983298
000130 0e 66 10 bf 5c 09 27 3f 20 33 4b 3d 94 ad 9a 3e
       -0.56405723 0.65248656 0.049609303 0.30210555
000140 ff ed b7 3d 34 bc 11 bf 17 21 b9 3e 09 e8 b6 be
       0.08980941 -0.569278 0.36158058 -0.35723904
000150 9d a6 78 bd 5b 07 b9 3e 78 64 e4 bd 6b bf 09 3f
       -0.06070577 0.36138424 -0.111519754 0.53807706
000160 e9 d8 77 be 0c df e4 3e 21 95 91 3d f3 a8 d5 3e
       -0.24203838 0.4470142 0.07108522 0.4173046
000170 a0 01 c3 3d e9 cb a7 be c5 5d 75 3e 2c c6 5e 3e
       0.09521794 -0.3277276 0.23961551 0.21755284
000180 94 d3 f3 be 8b 73 0d bf a8 e0 30 bf c5 74 35 3f
       -0.4762236 -0.5525443 -0.690928 0.708813
000190 57 8e cc 3d 8c e3 a1 3d 22 7d 10 3d a2 dd 8f be
       0.09988087 0.07904729 0.035275586 -0.2809878
0001a0 70 63 04 3f ae d8 e7 3e 49 09 01 bf c2 3d 98 3e
       0.5171423 0.452825 -0.50404793 0.29734617
0001b0 45 af f8 3e 14 d1 6a bd 3b 97 5e 3d d8 fb 08 3e
       0.4857122 -0.0573283 0.054343443 0.13377321
0001c0 6c 5a 15 bf a0 c5 e6 be 6e 3a 21 3f 8c 33 2d bf
       -0.583411 -0.4507265 0.6297978 -0.6765678
0001d0 db 0b 0b 3e 4e e6 2c bf 47 30 5f be ad ee aa bd
       0.13578741 -0.6753892 -0.2179576 -0.08346305
0001e0 c5 2c 50 3d d7 9a ae be af 04 8f 3e 26 fd 15 3e
       0.050823946 -0.34102508 0.2793326 0.1464735
0001f0 0f 4c 15 bf a8 f4 89 3d 04 d8 1e 3f ab 58 16 3f
       -0.5831918 0.067361176 0.62048364 0.58729047
000200 15 ab a6 be 41 38 d0 3e ed 69 04 bf 80 6d 21 3f
       -0.325524 0.40667918 -0.5172413 0.6305771
000210 c7 a2 7d 3e a6 d7 7a 3e 8c 72 04 bf 60 1e 71 be
       0.24769126 0.24496326 -0.51737285 -0.23546743
000220 91 3f 1f bf 55 88 b3 3e c4 3f 16 bf b9 11 86 be
       -0.6220637 0.3506495 -0.5869105 -0.26185396
000230 dd 9a 5a bd 31 af 95 3e 39 91 3a 3e 83 22 56 3e
       -0.053370345 0.29235223 0.1821946 0.20911603
000240 4a 03 0e 3f 69 e9 8f 3c 69 e1 ae bd 2c e5 8c be
       0.5547377 0.017567353 -0.08539087 -0.27518594
000250 18 24 33 be 60 4d 13 bf 22 a1 e0 3e f4 78 23 3f
       -0.17494237 -0.5753994 0.43872935 0.63856435
000260 de 0d dc 3e 47 95 ab 3e e4 ea 41 be 8f 7a 12 bf
       0.4297933 0.33512327 -0.1893726 -0.5721826
000270 11 48 2c 3f 46 fe 55 be b2 df 8b be b9 29 07 bf
       0.67297465 -0.20897779 -0.27319103 -0.5279804
000280 c7 25 f6 be 69 24 0a 3e a4 d8 d0 3e e0 d9 1f bf
       -0.48075697 0.13490452 0.40790284 -0.62441826
000290 cf 03 1f bf b6 99 bd bd 77 64 15 bf 24 6f 10 3f
       -0.62115186 -0.09257834 -0.5835642 0.5641959
0002a0 7d 9f 4b 3b a9 82 05 bf 4b fb 33 3e 56 fb 02 3f
       0.0031070404 -0.52152497 0.1757633 0.5116476
0002b0 2c 67 d8 3d f3 93 01 bf 2c 91 f7 3d f0 a0 06 bf
       0.105665535 -0.5061638 0.12088236 -0.5258932
0002c0 ac 27 ce 3e 05 e4 8f bd 69 e3 21 3e 07 4a c5 bd
       0.40264642 -0.07025913 0.15809406 -0.0963326
0002d0 64 e0 11 bf 85 03 44 3e a7 64 18 3f 1e 49 15 be
       -0.5698302 0.19141968 0.59528583 -0.14578673
0002e0 18 80 80 be eb 82 11 bf 56 2a bd bd 77 0c 2d 3f
       -0.25097728 -0.5684039 -0.092365906 0.67597145
0002f0 c1 33 36 be 8a 10 4a be b0 bd f7 3e c0 f8 12 bf
       -0.1779318 -0.19732872 0.48386908 -0.5741081
000300 61 b6 d2 bd ca 5e 6c be af 37 81 bc d4 82 e5 be
       -0.10288692 -0.23083034 -0.015773622 -0.44826376
000310 f6 af 9e 3c 2d 35 c0 3d 1a 30 02 3e 63 79 d7 be
       0.019371014 0.093851425 0.12713662 -0.42084798

fcs.0.bias f4 [100]
000000 4d 35 2a 3e 73 dc 1b bf dc b0 f7 3b 40 05 a9 3d
       0.16621895 -0.60883254 0.007558925 0.082529545
000010 fc 6f 46 be 80 a0 41 bd fd 34 54 3c c5 c1 bb 3e
       -0.19378656 -0.047272205 0.0129520865 0.36671272
000020 92 fc 21 3f d6 29 24 bf ca ef 0d 3f 23 bc 72 3e
       0.63276017 -0.64126337 0.55444014 0.23704581
000030 0e d5 2d 3f b3 38 1f 3f fe e6 80 be e4 8d a9 be
       0.6790322 0.6219589 -0.25176233 -0.33116066
000040 10 de f6 3e da 2b d4 3e e4 5f 19 3f 7c 27 96 be
       0.48216295 0.41439706 0.5991194 -0.29327
000050 52 b0 3c 3e d6 af 81 be 06 57 04 bf ae 6f df 3e
       0.18426636 -0.25329465 -0.5169529 0.43639892
000060 da c1 0f 3e 5d 9c 11 3f a1 68 b8 3e 9f 87 f9 be
       0.14038792 0.56879216 0.36017326 -0.48736283
000070 a2 1d a4 be 0b f3 57 3e 2a cf 08 3f 5c 06 19 bf
       -0.32053858 0.21088807 0.5344111 -0.5977533
000080 6e 3f 2e 3f 26 e0 e2 3e c5 76 40 bd 53 a0 2d bf
       0.68065536 0.44311637 -0.046988267 -0.6782276
000090 e1 b0 9c be 0a 16 fc 3e 33 85 70 3e a5 53 e6 3d
       -0.30603698 0.49235564 0.23488311 0.11246423
0000a0 c3 de 17 bf 26 81 29 bf 75 56 1e bf 68 75 15 bb
       -0.5932428 -0.6621269 -0.6185067 -0.0022805575
0000b0 f1 14 d6 bd a6 f5 cf be 08 73 2d 3f 9a 34 31 bf
       -0.10453213 -0.40617102 0.6775365 -0.6922089
0000c0 35 88 2a bf 7c 53 1f bf 2c 6f b4 be d6 cf 37 3d
       -0.66614085 -0.6223676 -0.35241067 0.044875942
0000d0 a0 7f 4d be 57 c2 3b 3d 92 93 0b 3f 5b 34 07 bf
       -0.20068216 0.045839634 0.5452205 -0.52814263
0000e0 c4 d7 a5 be 6b fc 2c 3f 52 d3 20 be da 07 7a be
       -0.3239118 0.6757266 -0.15705612 -0.24417058
0000f0 36 fb e8 3e 70 49 27 3f 62 ea 67 be 30 c1 07 bf
       0.4550416 0.6534643 -0.22648004 -0.53029156
000100 86 b1 30 3f 72 7c 19 3f ad 16 87 3e 5f 21 d9 3d
       0.6902088 0.59955513 0.26384488 0.10602068
000110 a9 aa a8 bd dc fa cd be 9f 9f 23 bf f1 66 30 3f
       -0.08235676 -0.40230453 -0.6391544 0.68907076
000120 ea 5a 7e 3e 77 5c 23 3f 46 38 23 3f d5 fd 20 bf
       0.24839368 0.63812965 0.6375774 -0.62887317
000130 80 3c 6f 3e 6d 6a ff be 0e ca e2 3e 09 d0 25 3f
       0.23362923 -0.49885884 0.4429478 0.6477056
000140 01 76 28 3f ed e8 01 3f b4 f8 4b 3e 43 bb 4e be
       0.6580506 0.5074604 0.19919091 -0.20188622
000150 7a bf 79 3e ce 63 d6 be 95 71 67 ba 2b 06 da 3e
       0.24389449 -0.4187302 -0.0008828876 0.4258283
000160 29 77 10 bf 12 03 f6 3d 68 94 0f 3f 16 4b 8b 3e
       -0.56431824 0.12012304 0.56085825 0.27205724
000170 2a 2f 86 3e 5a 28 62 3e b2 d9 b6 be ec be c8 3e
       0.26207858 0.22085705 -0.35712963 0.39208162
000180 df cc d8 3e be e6 09 be 52 50 1e bf d8 70 5e bd
       0.42343804 -0.13466927 -0.6184131 -0.054306835

fch.0.0.weight f4 [100, 100]
000000 c6 dc 7b 3d a7 46 88 3c d8 83 7e 3d 61 ab 47 bd
       0.061489843 0.016635252 0.062137455 -0.048747424
000010 d9 11 7e bd 2f 80 9d bd 7f e2 a0 bd f4 58 7f 3b
       -0.06202874 -0.07690465 -0.07855701 0.0038962932
000020 d8 19 83 bd 62 65 85 bd 46 5e 03 bd 49 e2 92 3c
       -0.06401414 -0.06513478 -0.032072328 0.017930167
000030 0a 16 8c bd 68 20 f8 3b 2a 73 a8 bd 96 4b 39 3d
       -0.06840141 0.0075722225 -0.08225091 0.0452381
000040 19 6f 67 bd 8f 1e bd 3d bf 7e a3 3d cc f0 72 bd
       -0.056502435 0.09234344 0.07983159 -0.059311673
000050 b7 67 a0 bd 7b b0 c1 3d 52 fe fd bc b7 40 dc bc
       -0.07832282 0.09457489 -0.031005058 -0.026886327
000060 6f f1 b7 bc 30 25 65 3d 8f 30 c2 bd 71 99 2e bd
       -0.022453992 0.055943668 -0.09481918 -0.042626802
000070 49 e0 a8 bd 6f fb 9f 3c 64 f8 96 bd 3d 0b a5 3d
       -0.08245904 0.019529073 -0.073715955 0.08058784
000080 c0 64 a5 3d 2d 36 c2 bd 56 3a 41 3d c5 3c 87 bd
       0.08075857 -0.094829895 0.047174774 -0.06603388
000090 ec fe 8a bd 93 b0 19 bc 0f 0b 72 bd 34 51 07 3d
       -0.06786904 -0.0093804775 -0.059092578 0.033036426
0000a0 17 d8 90 3d 7c c3 12 bc 48 1e 01 bc cc 5d bb 3d
       0.07072466 -0.00895774 -0.007880755 0.0914875
0000b0 10 94 a3 3d 13 e8 a8 bc 2e 9b ac bc 14 ed 15 3c
       0.07987225 -0.020618474 -0.02107009 0.009150762
0000c0 05 c5 1e 3d 79 6a c4 3c bb 82 99 bd 55 1d 01 bd
       0.03876211 0.023976551 -0.07495638 -0.031522114
0000d0 ba 22 22 bd a5 b3 23 bd 1d 21 0b bb 8c 1c e6 bc
       -0.0395839 -0.039966244 -0.0021229454 -0.028089784
0000e0 23 89 97 bd ce b7 d5 bd ca 91 b0 bd fd 69 93 3d
       -0.07399204 -0.104354486 -0.08621557 0.0719795
0000f0 14 30 c3 3d 9d 4c 2f 3d 4c f9 bb 3d 81 69 a5 3d
       0.095306545 0.042797673 0.09178409 0.08076764
000100 9e 1c c7 bd 3c 79 7d bb 94 53 ea bc 1c 3f 7c bd
       -0.09722255 -0.0038676998 -0.028604306 -0.061583623
000110 85 0f 9c bd cd 8b 40 3d d6 1d 7d 3d 22 8c 79 3d
       -0.076201476 0.047008324 0.061796032 0.060924657
000120 b5 f3 96 bb 95 d2 51 3d fa 76 b8 3d d7 03 be ba
       -0.004606689 0.051226217 0.09007068 -0.0014496994
000130 05 c2 2f 3d 33 11 a3 bc de dc 6b bd 80 fb 8f 3d
       0.04290964 -0.019905662 -0.057583682 0.07030392
000140 a9 b4 2b 3d 74 62 23 bd fb aa 97 3b b1 18 99 bd
       0.041920338 -0.039888814 0.0046285368 -0.07475413
000150 30 9b 6d 3c a1 8f 42 3d 52 2f 16 3d 6d 0b 7e bd
       0.014502332 0.047500256 0.036666222 -0.062022615
000160 09 95 d1 bb aa 1b 33 3d 6e 7d 00 3d e1 df a9 3d
       -0.00639594 0.043727554 0.03136962 0.08294655
000170 0b d6 b7 3d 9c 27 03 3c c7 87 71 bd c0 5e 62 3d
       0.08976372 0.008005049 -0.058967378 0.055266142
000180 33 6f 7c 3d f5 d7 06 bd 4b dd 72 3d 02 71 5f 3d
       0.061629485 -0.032920796 0.059293073 0.054551132
000190 95 69 9c bd 12 93 84 bc 71 ed 33 bd b0 30 1e 3c
       -0.07637326 -0.01618341 -0.043927614 0.009655163
0001a0 44 3f 4b bd 51 9f 02 bd ae 83 40 3d 56 46 59 3d
       -0.04962088 -0.031890217 0.04700058 0.053045593
0001b0 9e f9 ac bd 9e e9 d4 bc 5a 62 83 3d c8 08 7a 3d
       -0.08446048 -0.025990304 0.064152434 0.06104353
0001c0 d7 da d7 bc 68 78 de bd 8a 0c d6 3c 34 f8 8e 3d
       -0.026349468 -0.108628094 0.026129026 0.06980935
0001d0 be c3 9b 3d 23 37 91 bd 42 ad a1 bd 16 e3 37 bd
       0.07605694 -0.070905946 -0.078943744 -0.0448943
0001e0 d8 41 9e 3c ce 60 c2 bd 86 5d 6b bd 38 76 62 bc
       0.019318506 -0.0949112 -0.057462238 -0.013822131
0001f0 56 db 11 bc 7f cb 02 bc 73 41 a9 bc 14 02 a4 3c
       -0.008902391 -0.007983088 -0.020661091 0.020020522
000200 1d a7 6c bd 45 58 88 3d ef 2b 83 3d fd 43 51 bd
       -0.05777656 0.06657461 0.06404864 -0.05109023
000210 de c3 24 3d 2b e3 47 3c 05 05 9d 3d 34 c8 85 bc
       0.040225856 0.012200157 0.07666973 -0.016330816
000220 ad 96 f2 3c c1 16 07 bc 8d 87 34 bd a8 98 9c 3d
       0.029612863 -0.008245171 -0.044074584 0.07646304
000230 04 11 93 bd e6 e6 b2 bd 47 75 29 3d 36 a7 d2 3c
       -0.0718098 -0.08735447 0.04137161 0.025714498
000240 62 bb ff 3c dd 60 24 3d 95 25 18 3d ec 3e 51 3d
       0.03121728 0.04013144 0.037145216 0.051085398
000250 a1 d6 90 bd f8 80 5f 3d b5 8d 8b 3d 59 ca 4f bd
       -0.07072187 0.054566354 0.06814138 -0.050730083
000260 dd 97 d2 3c 2d b2 82 3d 8c d2 03 3d 4b 5b 45 3c
       0.02570718 0.063816406 0.032183215 0.012045692
000270 6d 05 50 bd 09 0f 9f 3d 4a 7f 82 3d 98 43 26 3d
       -0.050786424 0.077665396 0.06371935 0.040591806
000280 42 a7 86 bd 1c 11 fa 3c e5 2c d9 3c 23 22 4b bd
       -0.06574871 0.030525737 0.026510665 -0.049593102
000290 36 78 c8 bc 8c b9 d1 bd 5e 41 aa 3d ef 82 00 3b
       -0.024471384 -0.102404684 0.08313249 0.0019609293
0002a0 20 61 50 3d 5c 44 25 bc 36 73 8a 3c 1d 00 28 3d
       0.050873876 -0.010087099 0.01690064 0.041015733
0002b0 3b 6e 7e 3d 54 20 21 bc 60 5f 9c bd e4 19 6f bd
       0.062116843 -0.009834368 -0.07635379 -0.0583743
0002c0 81 a7 bc 3c 0f de 27 bc 6d 63 61 bb 27 ac a0 3d
       0.02302909 -0.010245814 -0.0034391538 0.078453355
0002d0 d5 77 ad bd 6e 42 8f 3d 79 20 c9 bc 1c 70 ad bb
       -0.08470122 0.06995092 -0.024551617 -0.0052929055
0002e0 78 d5 5c bd c7 da cf bc 7f 36 f3 3c 47 16 94 bd
       -0.053914517 -0.025372876 0.029689072 -0.072308116
0002f0 42 60 be 3d 8d 4c a0 3c d1 46 70 3d bc 17 03 bd
       0.092957035 0.019567752 0.058661286 -0.032005057
000300 5b 88 98 3d 3c 46 56 3c 2e 15 9f bb 0a 61 1a 3d
       0.07447883 0.013078269 -0.0048548197 0.0376902
000310 83 18 ac bd 9a 13 39 bd 41 10 6d bd 1b e3 47 bd
       -0.08403113 -0.04518471 -0.05787683 -0.04880057
000320 dc 69 5d bd 8b 51 3d 3d 79 58 85 bd e3 69 83 bb
       -0.054056033 0.046220344 -0.065110154 -0.0040104254
000330 d6 84 c7 bd 78 7e 07 bd c0 b9 18 3d 18 b3 2f 3d
       -0.09742133 -0.033079594 0.03728652 0.042895406
000340 e7 c6 be 3d 9b 15 87 3a 64 03 99 bd 84 02 2a bd
       0.09315281 0.0010306122 -0.0747135 -0.041506305
000350 f7 30 90 3d 1d e4 6a 3d d9 0b 6d 3d f3 ab b2 bd
       0.07040589 0.057346452 0.057872627 -0.08724203
000360 93 a7 a1 bd 9e f6 5d 3d 3b d8 6e 3c 55 d3 75 bd
       -0.0789329 0.05419027 0.014577921 -0.060015995
000370 58 97 2c 3d 45 c7 75 bc fa 8d b1 bb f5 2c 8b 3b
       0.04213652 -0.015001123 -0.0054185363 0.0042473027
000380 9b ae 8b 3d 77 9d b6 3d 37 84 58 bd 66 9e ab 3d
       0.06820413 0.08916753 -0.052860465 0.083798215
000390 ec 0d 62 3d 37 f3 23 3d 7e ca d5 3c ab 66 99 bd
       0.05518906 0.04002687 0.026097532 -0.074902855
0003a0 24 89 e8 3c bf b9 c8 bc 06 91 86 bd 23 54 81 3d
       0.028385706 -0.024502633 -0.0657063 0.06314876
0003b0 d1 7b 41 bd f7 49 4f bd 25 50 1d bd 26 69 39 3d
       -0.04723722 -0.050607648 -0.03840651 0.045266293
0003c0 4e 78 ca 3d 0c 99 4f 3d ac d0 47 bd 00 95 51 3d
       0.098862275 0.050683066 -0.04878299 0.051167488
0003d0 b6 47 46 3c cd e4 b6 3d 11 28 fb 3c fa a7 72 3d
       0.012102058 0.08930359 0.030658754 0.059242226
0003e0 ab c2 75 3d ab d1 b0 bd bf 53 85 bd 8c 38 9e 3d
       0.060000103 -0.08633741 -0.06510114 0.07725629
0003f0 63 b2 b4 3d ea 81 a9 bd 8a 02 6a 3d fc 88 0e bc
       0.08823087 -0.08276732 0.057131328 -0.008699652

fch.0.0.bias f4 [100]
000000 17 59 2a bc 0a af a4 3d 32 16 03 bd 89 57 8e 3d
       -0.010397217 0.080411986 -0.03200359 0.0695029
000010 06 06 c3 3d e9 4b b6 3d d1 49 97 bc 58 e8 a0 3d
       0.09522633 0.089011975 -0.018467816 0.07856816
000020 fb 82 8a bd ac 09 59 bb 18 0e 62 3c b9 d1 68 3d
       -0.06763264 -0.0033117337 0.0137973055 0.056840632
000030 dd c4 61 3d ab b9 94 3d 50 d6 9f bd 62 03 26 bc
       0.055119384 0.07261976 -0.07804549 -0.010132642
000040 e5 37 0c bd 3c d1 d2 3d 32 99 3f bd 06 cd c2 3d
       -0.034232993 0.102938145 -0.046776958 0.09511761
000050 ae bd 7c 3d fb 83 49 bc 75 18 95 bd 0a 4d 51 3d
       0.06170433 -0.012299533 -0.072800554 0.05109886
000060 c9 8e 50 bd b2 df 60 3d 2a 85 cc 3d 0d 9b 79 3d
       -0.05091742 0.054900832 0.099863365 0.060938884
000070 50 97 ea 3c d9 9f 44 3d 2e f8 8a 3d 5b 8b a3 3d
       0.028636605 0.048004005 0.06785618 0.07985564
000080 f4 3d d7 bb 4d bc 8d 3d 21 b8 b9 3c 99 56 8d bc
       -0.0065686647 0.06920681 0.022670807 -0.017253207
000090 2b dd 15 bd 29 a8 28 bd 46 0b 8c 3d 36 c7 53 3d
       -0.036587875 -0.041175995 0.06838088 0.051703654
0000a0 a2 d5 2e 3c 06 81 b7 3c d0 1e aa bd 99 22 68 3d
       0.010671051 0.02240039 -0.08306658 0.05667362
0000b0 46 3d 87 3d 00 cd ab bd d1 ad 13 3d b2 df ba bd
       0.06603484 -0.0838871 0.036054436 -0.09124698
0000c0 54 66 fc bc 0f 21 63 3d 3c ed 09 3d ea 8d d2 bd
       -0.030810513 0.05545145 0.03367351 -0.10280974
0000d0 4d 31 99 3c a1 5a 8f 3d 6b 08 36 3d cc c6 75 bb
       0.018700266 0.06999708 0.04444162 -0.0037502525
0000e0 b2 5c 08 3d 4f 0d 00 3d 19 66 a7 bd d7 fb 2e 3d
       0.033291526 0.031262692 -0.081737705 0.042720642
0000f0 32 9d c3 bb 84 4e 8a bc bc 82 92 3d 52 1d d6 3d
       -0.005969667 -0.016883142 0.07153842 0.10454811
000100 d3 7a 88 bd 81 1f a1 3d 27 01 2f 3d 9d 05 a7 bd
       -0.06664052 0.07867337 0.04272571 -0.081553675
000110 8a 86 0f 3d a2 17 84 3d ec f5 b1 bd f4 38 28 3d
       0.035040416 0.0644982 -0.08689484 0.04106994
000120 8b 4c 2a bd ab b7 c3 3c 11 bb 19 bb 62 6a 78 3d
       -0.041576903 0.02389129 -0.0023457448 0.06064833
000130 8b 8d 8b 3d 44 fb b5 3d 24 fb 59 bd 89 74 01 3c
       0.068141066 0.08885816 -0.053218022 0.007901319
000140 c8 04 20 3d cd 10 55 bd 7a 0e 92 3d d4 d6 ba 3d
       0.03906706 -0.052017976 0.071316674 0.091230065
000150 bc ee de 3b c5 4b be 3b 79 9b 55 3d cb 26 ac 3d
       0.0068033617 0.0058073723 0.052150223 0.08405837
000160 0f 9a b3 bd 8c 5c b9 bd 2a f3 90 3d bb 77 66 3d
       -0.08769619 -0.09050855 0.0707763 0.056266528
000170 0d bf c3 bd 7e 43 32 3b ff cc 64 3c 62 40 66 3d
       -0.095579244 0.0027200873 0.0139648905 0.056213744
000180 32 fc 3b 3b 83 09 5a bd 7f db 38 3d 43 54 5c bc
       0.0028684256 -0.053231727 0.045131203 -0.013447824

fch.1.0.weight f4 [100, 100]
000000 7d 2f cd bd c0 f3 3d bc b0 af a5 bd 61 54 9c 3c
       -0.10018823 -0.011593759 -0.0809015 0.019083204
000010 a7 26 bb bd 85 9c 8e 3d 90 6e 23 bd b4 31 33 3c
       -0.09138232 0.069634475 -0.039900362 0.010937143
000020 ea 7b 39 bd 3d 90 a1 bc c7 8f 8e bd 82 9f 7f 3d
       -0.04528419 -0.019722098 -0.06961017 0.062407978
000030 52 f9 9d bd 5d 55 b5 3d c9 3e 23 bd 09 d1 88 3d
       -0.0771357 0.088541724 -0.0398548 0.06680495
000040 3e c0 c0 bd 76 d7 c3 3d 92 cc b0 bc 8f f9 91 bc
       -0.09411667 0.0956258 -0.021581922 -0.017819194
000050 9d 2f ac bd f6 ef 62 3c 6d f0 65 bd 5a 27 51 3d
       -0.08407519 0.013851156 -0.05613749 0.05106292
000060 45 18 1f bd aa a6 8a 3b 94 cc 99 bd d5 0e a0 bc
       -0.038841505 0.0042312937 -0.07509723 -0.019538322
000070 51 7b b1 bd 9e 2f 6b 3d 35 40 23 3d 31 3e bf 3d
       -0.08666099 0.05741846 0.039856154 0.09338034
000080 f1 c1 14 3d 9c 45 91 3d fd 35 6f 3d 85 39 48 3c
       0.03631777 0.07093355 0.058401097 0.012220745
000090 38 b5 8e bc 43 2c b2 3d a6 39 f2 3c b9 35 30 3d
       -0.017420396 0.086998485 0.029568505 0.043019984
0000a0 33 c7 ef 3b f8 cf 65 3d a7 09 8c 3d cd 27 63 3d
       0.0073174476 0.056106538 0.068377785 0.05545788
0000b0 1d fd 1b bc 9e 72 09 bd 6e 55 9b 3d 11 d0 42 3c
       -0.009520796 -0.033556573 0.07584654 0.011890427
0000c0 fd 8d 75 3d be 3b 06 bd 36 6e b8 bd fb 33 70 bd
       0.059949864 -0.03277182 -0.09005396 -0.058643322
0000d0 39 48 f3 bb 45 74 5d 3d 40 06 1c bd ad b0 a9 bb
       -0.007424381 0.05406596 -0.038091898 -0.005178532
0000e0 b2 b0 91 3d bb 90 7d 3d 8d 7d 5b ba d6 e2 b0 3d
       0.0711378 0.061905604 -0.00083728955 0.086370155
0000f0 af a5 c1 3a a5 7f 2e bc 32 f0 4a 3d 5d 0a 89 3d
       0.0014774109 -0.01065055 0.049545474 0.0669143
000100 b9 b3 ee ba 35 b2 3c bd 42 4b bb 3d 56 11 35 bc
       -0.001821152 -0.04606839 0.09145214 -0.0110514965
000110 cf 0c b8 bd 88 70 ad 3d e5 d4 8c 3d cd 4d 2e bb
       -0.08986818 0.08468729 0.06876544 -0.0026596666
000120 ce 28 00 3d 1f 56 97 3d ca bc c4 bb 61 7e ae 3d
       0.031288914 0.07389473 -0.0060039507 0.085201986
000130 69 52 8d bd 60 e2 86 3d 1d 40 cb bc 60 5e b7 bd
       -0.06900484 0.06586146 -0.024810845 -0.089535475
000140 49 ae 26 3d a5 2b 03 bd 45 46 fc 3b 59 94 31 3d
       0.040693555 -0.032024045 0.0076988065 0.043354366
000150 4d cb 80 3d 33 72 78 3d d0 c4 3f bc e4 b3 80 3d
       0.062887765 0.060655784 -0.011704639 0.062843114
000160 cd dd ad 3d 7c c9 ac bb 65 8a fc 3c fc b9 a9 3d
       0.08489571 -0.0052730422 0.03082771 0.08287427
000170 50 e6 20 3d 79 5a 7a bd 6c 40 63 bd 9d 5f 90 bc
       0.039282143 -0.061121438 -0.05548136 -0.017623717
000180 6b 3d ac 3d f0 fc 0f bd 79 ba cc 3c 72 47 17 bb
       0.08410152 -0.03515333 0.02499126 -0.0023083356
000190 70 b9 bf bd 99 ee 81 bd 7a a3 7f 3d 5a 94 2c 3d
       -0.09361541 -0.06344337 0.062411763 0.042133667
0001a0 13 e5 92 3d a8 67 51 3d 85 6a 99 3d f7 80 b6 bd
       0.07172599 0.051124245 0.0749102 -0.08911317
0001b0 b0 59 10 3d 81 0d b8 bd d0 a2 82 3d a1 8c 44 ba
       0.035241783 -0.08986951 0.0637871 -0.0007497762
0001c0 a2 ae c5 bd c5 f5 a9 3d f0 8f d1 bb 0a 86 bd bd
       -0.09652449 0.0829883 -0.0063953325 -0.092540815
0001d0 eb bc 4f bd d8 e1 b0 3c e9 4e 47 bd 47 8c c8 3d
       -0.050717276 0.021592066 -0.04865924 0.09792381
0001e0 f3 2f 70 3d ed 3b 95 3a e1 c2 34 bc 8a c3 1f 3c
       0.058639478 0.0011385657 -0.011032791 0.00975121
0001f0 00 18 a3 bc 0c 86 53 3b de c2 a1 3d 5e fe ba bc
       -0.019908905 0.0032275943 0.07898496 -0.02282637
000200 d1 88 a5 bd f3 de 8d bb d0 c0 24 bd a0 9d bf 3d
       -0.08082736 -0.004329556 -0.040222943 0.093562365
000210 6a 95 43 bc c6 bc d0 bc 2b 65 9e 3d 9b 09 2d 3d
       -0.011937479 -0.02548064 0.0773414 0.04224549
000220 7b 49 aa 3d dc a0 14 bc 68 91 5a bc 4b 2c 68 bd
       0.083147965 -0.009071555 -0.013340332 -0.056682866
000230 7a 09 17 3d 5d 8d 2a 3d 05 a3 52 bd 3c 8f a4 b9
       0.036874272 0.04163872 -0.051425 -0.00031387236
000240 f7 86 b9 3d 22 40 50 bc 36 b4 ea bc a7 ff 28 bc
       0.090589456 -0.012710603 -0.028650384 -0.0103148585
000250 55 fe 86 bd 5c f6 0e bd 06 d6 52 bc 0f 99 5b 3d
       -0.06591479 -0.034902915 -0.01286841 0.053612765
000260 77 35 b2 bc 16 1e 7a bd e6 2c 11 3d 26 53 92 bd
       -0.02175401 -0.06106385 0.03544321 -0.071447656
000270 77 1a b1 3d 1b 31 6b bd bb 2f 9e bd bc 9e 81 bd
       0.08647626 -0.057419877 -0.077239476 -0.06329104
000280 f8 17 b3 3d 0a ad fc bc 7b 09 6b bd f3 d2 98 3d
       0.08744806 -0.03084423 -0.05738209 0.0746211
000290 8f d8 32 3c ba 82 36 3d 82 a1 71 3d ef 6c c5 bd
       0.010915889 0.044558264 0.058991916 -0.09639918
0002a0 6f bc 6b bd 56 9b 60 bb 45 a3 f5 3b 07 2e fc 3c
       -0.05755275 -0.0034272275 0.00749627 0.030783666
0002b0 15 7a 3c 3d 01 c9 74 3d 47 20 b8 3c 1f 8f 4e 3d
       0.046014864 0.059762005 0.022476329 0.05042946
0002c0 d4 71 8f bd 6f eb 4d 3c ff 2b 85 bd 94 ce ed 3c
       -0.07004133 0.012568339 -0.06502532 0.029029168
0002d0 df ba 71 3d 17 95 a7 3b f3 cc fc 3c 41 4f f2 bc
       0.059016105 0.0051142084 0.030859446 -0.029578807
0002e0 b7 6a c8 3d 84 8b dc ba 02 0b 60 bd b8 fc 9a bc
       0.09785979 -0.0016826247 -0.054697998 -0.018919334
0002f0 be a4 94 3d a4 9c 0c bd 1f 7d 71 bd ed 05 73 bd
       0.072579846 -0.03432907 -0.058957215 -0.059331823
000300 0b 99 09 bc 64 33 55 bb 8e aa b0 3c cd ac c9 bd
       -0.008398305 -0.0032531852 0.021565702 -0.09847412
000310 c9 b5 c0 3d 02 29 fa bc 30 f6 7d 3d 90 d7 79 3d
       0.09409673 -0.030537132 0.06200236 0.060996592
000320 92 5a eb 3b c8 f3 59 bd b5 f7 19 bc ac 36 3c 3d
       0.0071824277 -0.053211004 -0.009397437 0.045950577
000330 f8 ce c4 bd 22 80 a1 bd 4e 91 90 3d e9 2f 81 3d
       -0.09609789 -0.078857675 0.07058965 0.06307966
000340 39 f2 89 bd 95 38 b0 3d 86 ed a2 3d b9 f0 1b 3d
       -0.067356534 0.08604542 0.0795546 0.038071368
000350 ee 0c 6c 3d 98 b6 13 3d e5 bd cc bd 10 57 91 3d
       0.05762952 0.036062807 -0.09997157 0.07096684
000360 a4 dd aa 3d 41 7b c4 3d c6 1c 98 3c dc bd 0f bd
       0.08343056 0.09593821 0.018568408 -0.035093173
000370 42 81 ec bc 5d 29 a2 bd 39 a1 47 3d 5f 07 d3 3b
       -0.028870229 -0.07918046 0.04873774 0.0064400877
000380 22 40 b7 bd db 7e 98 3d c8 46 bd bd 89 a4 76 3d
       -0.08947779 0.07446071 -0.09242016 0.060215507
000390 1a 17 40 bd 43 6a 91 3d 9b ed 82 bc 31 6a 10 3d
       -0.04689703 0.07100346 -0.01598244 0.035257522
0003a0 4a b3 e0 3c 16 18 bb bd 56 0d 66 3d d9 e7 16 bd
       0.027429242 -0.091354534 0.056165062 -0.0368422
0003b0 07 49 b5 3d 8c cf a1 bd b5 57 2e 3d ee 62 c0 bd
       0.088518195 -0.079009145 0.042564113 -0.09393869
0003c0 bf 6c 32 b9 de 6d 86 3d 0c c2 d3 bc d1 69 af bd
       -0.00017015914 0.06563924 -0.025849365 -0.08565105
0003d0 c1 cb be bd 7f 37 2a bc 01 df c6 bd b3 b9 98 bd
       -0.09316207 -0.010389208 -0.09710503 -0.07457294
0003e0 83 be 81 3d 9f 88 82 3c e4 83 c2 3d 78 fd 48 3d
       0.06335165 0.015934287 0.094978124 0.04906985
0003f0 d5 37 11 bd 31 1e 60 bd 6a 4b 98 3d 8f dc 08 3d
       -0.035453636 -0.054716293 0.07436259 0.033413466

fch.1.0.bias f4 [100]
000000 8d da 9d bd 36 05 84 bd 75 16 a8 3d 71 39 8d ba
       -0.07707701 -0.064463064 0.08207408 -0.0010774565
000010 d4 23 a0 bd cc fd 6e 3d 40 91 89 bc 2d e3 23 3d
       -0.07819334 0.05834751 -0.016792893 0.040011574
000020 2e 4e be 3c b8 8e 48 3d 72 84 3b bd 7f aa 36 3d
       0.023230638 0.048964232 -0.045780607 0.04459619
000030 8e 94 c3 bd 1c 9f 7a bd 4f c9 ef 3b 68 5d 2e bc
       -0.09549819 -0.061186895 0.007317699 -0.010642387
000040 3f 84 e5 bb c2 bb a8 bd 31 8c c9 bd 34 01 e2 bc
       -0.0070042904 -0.08238937 -0.098411925 -0.027588464
000050 2a 5a 96 bd 4c ea 1a 3d 5e 13 21 bd b1 53 54 bd
       -0.07341416 0.0378211 -0.03932511 -0.051837627
000060 42 f1 03 bd c1 f1 9f bd a3 e6 86 bd 03 f8 bc bd
       -0.032212503 -0.07809783 -0.06586959 -0.09226992
000070 a5 4f bc 3d 06 c4 84 3d 56 35 f0 bc ce 0e 88 3d
       0.091948785 0.06482701 -0.029322308 0.06643449
000080 65 ca b7 3d ae 8c bc 3d 4b d8 68 bd 4a f1 c6 3d
       0.089741506 0.0920652 -0.056846898 0.09713991
000090 05 94 c0 bd bb 3b 94 3d cf 71 65 3c 93 ab 32 bd
       -0.094032325 0.07237955 0.014004185 -0.043620657
0000a0 ab d2 6b 3d af 33 83 bd c5 2c 04 bd d3 04 1f bd
       0.057573956 -0.06406342 -0.032269258 -0.03882296
0000b0 3d b9 95 3b 14 41 b3 bd 5d d3 5f 3d 2e 00 8d bd
       0.0045692013 -0.08752647 0.05464493 -0.068848
0000c0 1b dc 5a 3d 84 04 9b bc 56 2a c0 3d 4f d6 90 bc
       0.053432565 -0.018923052 0.09383075 -0.017680315
0000d0 65 27 a2 3d 10 7e bb 3d 3d 2d 95 bd 08 eb b8 3d
       0.0791767 0.09154904 -0.07284019 0.09029204
0000e0 f2 c9 3e 3d 9d 95 1c 3d 76 da 81 3d 16 20 7d bd
       0.04657931 0.03822862 0.06340496 -0.061798178
0000f0 16 23 21 3d cd 71 c0 3b 5b cd c5 bb a6 f3 87 3b
       0.0393401 0.005872941 -0.006036443 0.004148918
000100 64 a5 59 bd 66 02 2f 3d c1 50 4e 3d c1 af 9a bd
       -0.053136244 0.042726897 0.05036998 -0.07553054
000110 45 77 1d bd 59 55 ca bd af f9 85 bd 27 10 82 3d
       -0.038443822 -0.0987956 -0.06541764 0.06350737
000120 2c 8d 2f 3d fe e3 83 bd 45 28 4f 3c b1 b7 d8 bc
       0.04285924 -0.064399704 0.012643878 -0.026454778
000130 7f 83 69 3d 18 6f 1d 3d ed 9c 02 3d c7 b0 4b bd
       0.05701017 0.038436025 0.031887937 -0.049729135
000140 43 ed e3 bc 6a 42 39 3d 83 37 90 3c 07 1f 02 bd
       -0.027823096 0.045229353 0.017604595 -0.03176787
000150 17 8f 05 3c 75 73 90 3c d4 8d ad bd ed d0 58 3d
       0.008151791 0.01763318 -0.08474317 0.052933622
000160 c6 93 b6 3d e5 39 af 3c cb c7 60 3d 90 92 98 bd
       0.08914904 0.021389911 0.054878037 -0.074498296
000170 db d0 cd 3d 9a b4 49 3d de df b7 3d 9d 3a ae bd
       0.10049602 0.0492445 0.08978246 -0.08507273
000180 8b e3 fe 39 d8 60 05 bd 26 49 f0 bc 5f ff 96 3d
       0.00048616188 -0.03256306 -0.029331755 0.07372927

fch.2.0.weight f4 [100, 100]
000000 02 98 03 3b 4a fa 54 bd 48 5c 5b 3d fb bd a6 bd
       0.0020079617 -0.051996507 0.053554803 -0.08141705
000010 bf 83 9a 3d a0 32 9c bd be a9 73 bd 4a 64 99 3d
       0.0754466 -0.076268435 -0.05948805 0.07489832
000020 8f 62 7c 3d 5e c4 b3 3d 47 bc a0 bd d7 c0 9d 3d
       0.06161743 0.087776884 -0.07848411 0.07702797
000030 06 2d 36 ba 0a 1b a3 bd d3 28 28 bd 26 05 b2 bd
       -0.0006949458 -0.07964142 -0.041054558 -0.08692388
000040 0b 37 dc bc 6b 71 35 3d 3e 72 c6 bd 90 a0 5e bc
       -0.026881715 0.044297617 -0.09689759 -0.013588086
000050 7d d0 0f bd 0c fe ad 3d 8b 34 c3 bd d5 e6 c5 bd
       -0.03511094 0.08495721 -0.09531506 -0.09663168
000060 de 8d 8f 3d 61 ae 8e 3c f7 96 8d 3d cc d1 aa 3d
       0.07009481 0.017417135 0.0691356 0.08340797
000070 6a 2f 6f 3d 47 31 93 3d 92 e9 b3 3d 52 26 fe 3c
       0.058394827 0.07187133 0.087847844 0.031024132
000080 ef 5b ba 3c 92 65 51 bd f5 88 80 bd 64 2b b2 3c
       0.022748915 -0.051122256 -0.062761225 0.021749206
000090 6e 6d 6d bd fa 56 60 3c b2 33 68 bd d4 a2 ac bd
       -0.05796569 0.013692612 -0.056689925 -0.084294945
0000a0 14 b1 69 3d 63 8a 50 bd 82 46 bc bd 51 aa 9a bd
       0.05705364 -0.050913226 -0.09193136 -0.075520165
0000b0 c5 85 4a bd 1f 36 1b bd ac 93 c3 3d 54 d9 1f bd
       -0.04944398 -0.03789341 0.095496505 -0.03902562
0000c0 49 12 00 3d 4a 59 f2 bc 72 34 30 3d 33 4e d3 bc
       0.031267438 -0.029583592 0.043018766 -0.025794124
0000d0 60 ce 01 bd 10 fb 28 bc 5f 0d 32 bd 68 e5 cd 3c
       -0.031690955 -0.010313764 -0.043469783 0.025133803
0000e0 d0 52 45 3d 46 fb ee 3c 11 ad ce bd 9a 5e 4b 3d
       0.04817468 0.02917255 -0.100916035 0.049650766
0000f0 b7 2c 68 bd 03 88 8d 3d 8a eb d3 bc 16 b7 b1 bd
       -0.05668327 0.06910708 -0.02586915 -0.08677499
000100 e7 7f 08 3d af f4 23 bd 7d 18 a7 bc 53 32 37 bd
       0.033325102 -0.04002827 -0.02039742 -0.044725727
000110 37 23 80 bc 80 b9 5a 3d 60 4a be 3d f1 f8 81 bd
       -0.015641792 0.053399563 0.0929153 -0.0634631
000120 e9 bd cd bd 4b d0 03 3d 87 70 c5 bb 6e aa 8a bd
       -0.10045988 0.032181066 -0.006025377 -0.06770788
000130 7a 26 2a 3d dd c0 ad bd 38 9a 58 bd 71 c2 9f 3c
       0.0415406 -0.084840514 -0.05288145 0.019501897
000140 18 8f 97 3d 40 83 c2 3c 0a 48 bd 3d c1 73 77 bd
       0.0740034 0.023744226 0.09242256 -0.060413126
000150 7f fb b5 3d 09 f0 86 3d e2 1b f9 3b e0 3f 3f bc
       0.0888586 0.06588752 0.007602201 -0.011672944
000160 68 61 ad bd 9f 2e 35 3c 8a 8d 85 bb 83 25 6b 3d
       -0.084658444 0.011058479 -0.0040757107 0.05740882
000170 3b 25 d9 3c 17 b0 92 bd 4c ce be bd e9 82 98 bd
       0.02650701 -0.07162493 -0.09316692 -0.07446844
000180 df 78 83 3c 49 bd 61 3c c5 e2 18 bd d5 65 8f bd
       0.016048847 0.013778039 -0.03732564 -0.07001845
000190 bf e3 cc bd 0c 35 77 bc cc 49 f3 bc 8a 1c ca 3d
       -0.100043766 -0.015088331 -0.029698275 0.09868725
0001a0 a3 1e bc 3d f4 0d ac bd cf 2d 1f 3c 74 f1 20 3c
       0.09185531 -0.08401099 0.009715511 0.009823192
0001b0 ea d3 b3 bd 56 d9 9e bd 49 5e 5e bd 2f 42 1b bd
       -0.08780654 -0.07756297 -0.054289136 -0.037904914
0001c0 38 b8 a7 3d 2a d1 d3 bb ef 99 7c bd c2 c7 c5 bc
       0.08189434 -0.0064641433 -0.06167024 -0.024143104
0001d0 50 4e 45 bc 1e e4 80 3d bc 16 00 3d a7 43 90 3d
       -0.012042597 0.0629351 0.03127168 0.07044154
0001e0 71 89 9d bd 6a b4 81 bd be e5 aa 3d 53 c2 4d 3d
       -0.076922305 -0.063332394 0.08344601 0.05023415
0001f0 54 97 51 bd 62 75 47 bb f1 d2 18 bd 35 fd ac bb
       -0.05116971 -0.0030434956 -0.037310544 -0.005279208
000200 82 bc 99 3d 7a 3c 51 3c 50 88 bb 3d 8b 01 2a bd
       0.07506658 0.012770766 0.09156859 -0.041505378
000210 62 f5 c9 bc 9f 03 07 bd e7 36 16 bd e2 c3 53 3d
       -0.02465314 -0.032962438 -0.036673453 0.05170048
000220 9d b1 23 bd 87 e1 a6 bd 0c ab cd bd e5 38 6d 3d
       -0.039964307 -0.08148485 -0.1004239 0.057915587
000230 ed 6b a9 bc ad 31 8b bd 43 57 ff ba 53 c6 58 3c
       -0.020681346 -0.06796584 -0.0019480962 0.013230878
000240 99 7f a9 3d a7 7a 6f 3d 33 0d b8 bd ab 2d 7a bd
       0.082762904 0.05846658 -0.089868926 -0.06107871
000250 7d 45 bf 3c 90 a1 32 3d d0 d2 d5 3d 10 c2 ad 3d
       0.023348564 0.04361111 0.104406 0.0848428
000260 80 cd 15 3d c8 7e 25 bd 49 07 1b bc a1 04 19 bd
       0.036572933 -0.04040411 -0.009462186 -0.03735793
000270 41 37 3f bd fc cf 2d 3d 75 a6 db 3c 60 ec af bd
       -0.046683554 0.042434677 0.026812771 -0.08590007
000280 ad b5 87 bc 94 66 82 3d fd 57 f1 bc 06 c4 3c 3c
       -0.016566122 0.063672215 -0.029460901 0.011521345
000290 26 b2 a1 3c 67 64 50 3d 71 b4 2a bd 03 7c d6 3c
       0.019738268 0.050877 -0.04167599 0.02618218
0002a0 97 ba 58 ba fd c2 bc 3d e1 d8 ae bd 24 de 9c bd
       -0.000826755 0.092168786 -0.0853746 -0.076595575
0002b0 fe 1d 89 3d 97 3f 06 3d a0 60 6e bd 11 1f d2 3d
       0.06695174 0.032775488 -0.058197618 0.10259832
0002c0 08 f3 91 bd cc d3 f3 3b 98 31 90 3d 84 21 58 3b
       -0.07126433 0.0074410196 0.07040709 0.0032978961
0002d0 a8 68 0a bd 06 88 9f bd cc db e1 bc 74 31 2f bb
       -0.033791214 -0.07789616 -0.027570628 -0.0026732357
0002e0 6e 42 8a 3d 68 84 94 bd 11 0a 8b bd 5e 0f f5 bc
       0.06750952 -0.07251817 -0.067890294 -0.029914554
0002f0 d4 92 c1 3d af 81 9b 3d 21 e4 af bd 6e 53 43 3d
       0.09451833 0.075930946 -0.08588434 0.047686987
000300 98 ae 13 3d b7 49 6f bd 0b 7d 00 bd e6 6c a8 3d
       0.036055177 -0.05841991 -0.03136925 0.08223896
000310 aa 0f 93 3d 8b 93 bd bd 32 88 10 bc 84 fe 19 bb
       0.07180722 -0.09256657 -0.008821534 -0.002349765
000320 84 3d 8e 3d 81 0f 7e bc bb e6 a1 3c cb 20 b9 3d
       0.06945327 -0.015506626 0.019763341 0.09039458
000330 62 33 84 3d 3d b1 a1 bd d1 84 a6 3d 80 70 3c bd
       0.06455113 -0.07895134 0.081308015 -0.046005726
000340 41 4c a0 bc 86 92 88 3c f4 38 71 bd e8 d8 66 3d
       -0.01956761 0.01667143 -0.058892205 0.0563592
000350 c8 ad a5 3c 00 65 c5 bd 75 39 d3 bc c0 af d8 bc
       0.020224467 -0.09638405 -0.025784234 -0.026450992
000360 e2 ca 8f bd 35 e0 1e bd 2e d7 7d bd 84 10 86 bd
       -0.07021119 -0.03878804 -0.06197279 -0.06546119
000370 f3 5d 0f 3d 7c 02 8b bd dd e9 87 3d fc 1d c5 bd
       0.035001706 -0.06787583 0.06636403 -0.0962486
000380 87 31 f3 3c 3e 30 7a 3d 71 92 94 bd ad 9a 34 3c
       0.029686702 0.061081164 -0.07254494 0.011023206
000390 38 5c 63 3d 3c 98 c4 bd 22 2f 56 3d ab 94 ee bc
       0.05550787 -0.09599349 0.052291043 -0.029123625
0003a0 62 25 91 3b bb 8c 64 3d 7a 9a 34 bd aa b5 97 bd
       0.004429505 0.055798274 -0.044092633 -0.074076965
0003b0 bd 4a e2 bc c7 1a 3f bd e3 2b 75 3d 9f 39 f5 3c
       -0.027623529 -0.046656396 0.059856307 0.029934702
0003c0 f1 cd bc 3c db f4 f5 3b 65 a3 8c bc 6a 5f 30 3d
       0.02304742 0.0075059957 -0.017167756 0.043059744
0003d0 9a 1f 15 bc 59 17 be 3d 44 d0 86 3d be ef 69 bb
       -0.009101773 0.09281797 0.06582692 -0.0035695876
0003e0 25 65 71 bd ca e7 de bb 7b 44 77 3d 09 83 84 bd
       -0.05893435 -0.0068025338 0.060368042 -0.064703055
0003f0 b0 f4 f7 3a 47 7e 66 3d be 3f 89 3d 65 73 15 bd
       0.0018917527 0.05627277 0.06701611 -0.036487002

fch.2.0.bias f4 [100]
000000 91 91 9d 3c c4 b0 a5 bd 0f b5 5a bc ae ea bb 3d
       0.01923445 -0.08090356 -0.013348832 0.09175621
000010 04 c2 8c bd ce 63 c2 bd 60 47 24 bc fc d6 1d 3d
       -0.06872943 -0.094916925 -0.010026783 0.038535103
000020 07 25 0b bd bc 33 36 3b 2c 77 5f 3d 62 65 30 3c
       -0.03397086 0.0027801832 0.05455701 0.010766359
000030 d5 44 39 bd 6b fa 48 bd c8 0d 06 3d 8c 09 40 3d
       -0.04523166 -0.049066942 0.032727987 0.046884105
000040 65 cb 96 3d f1 c9 82 3d 9b 11 e8 bb e0 85 b9 3d
       0.07363013 0.063861735 -0.007082177 0.09058738
000050 04 6f 9f 3d ff 7b 8b 3d 50 ab bb 3d 50 d3 83 bd
       0.077848464 0.0681076 0.09163535 -0.06436789
000060 a4 fe 8f 3d 25 46 b8 3d 74 c3 e1 bc 00 b3 84 bb
       0.07030991 0.08997754 -0.02755902 -0.004049659
000070 ff 09 9e bd 99 ea b1 3d 38 28 97 3d 98 df 4e 3c
       -0.0771675 0.08687324 0.07380718 0.012626551
000080 df 1a 2a bd 45 bb 3f 3d f8 73 af bd 8e 36 b3 bd
       -0.041529533 0.046809454 -0.08567041 -0.0875064
000090 f4 2d cf bc cc 84 3f bd 7a a0 1c bd 52 06 bb 3d
       -0.025290467 -0.046757504 -0.03823898 0.09132065
0000a0 68 ed 04 bd e3 fa 00 3d 6d b5 a2 3d 7c 95 be bd
       -0.03245297 0.031489264 0.079447605 -0.09305856
0000b0 8a e7 87 bd a3 ca 0e bd 3e 84 78 bd ec 77 5f 3d
       -0.066359594 -0.03486122 -0.06067299 0.054557726
0000c0 81 23 4b bd 2b 5b 9c bd b0 68 11 bd 82 8d 23 bd
       -0.049594406 -0.076345764 -0.03550023 -0.039929874
0000d0 a5 ba d2 3c 90 33 9c 3b 88 95 96 bd 41 f7 83 3c
       0.025723765 0.004766889 -0.073527396 0.01610911
0000e0 e6 45 96 bd 20 1e ab 3d 86 aa 33 3d ee 2d d5 bc
       -0.07337551 0.08355355 0.043863796 -0.026022878
0000f0 a0 f3 50 bd d1 88 ac 3d c1 83 71 bc 50 d9 71 3d
       -0.05101359 0.08424533 -0.014740885 0.059045136
000100 19 a9 2f bd e1 85 b7 bd a9 8e 71 3d 34 09 aa 3c
       -0.042885873 -0.08961082 0.058973942 0.020756342
000110 07 50 1f 3d 2b 5b db bc e1 72 7a 3d d8 20 02 3d
       0.03889468 -0.02677687 0.061144713 0.031769603
000120 f0 7a 1f bd 52 68 c3 bd c8 68 0c bc d8 62 90 3c
       -0.0389356 -0.09541382 -0.008569904 0.017625257
000130 29 c7 f7 bc 42 33 ba 3d be 7c 6a bc e4 c4 91 bc
       -0.030246334 0.09091808 -0.014311967 -0.01779408
000140 03 ce 11 3d 48 48 14 bc bf c3 25 bd 29 ee 3e 3d
       0.03559686 -0.009050436 -0.04046988 0.046613846
000150 90 f6 20 3d 32 45 6d ba 0b ca 12 bd 4f f2 7f 3d
       0.03929764 -0.00090511434 -0.035837214 0.062486943
000160 3d bf 66 3d 17 6c 8a 3c 06 36 ec bc 0b b7 38 bd
       0.056334723 0.016897244 -0.028834354 -0.04509644
000170 77 0f 6e ba 04 f3 41 3c 6c 8b 43 bd e9 30 9c bd
       -0.0009081284 0.011837725 -0.047740385 -0.07626516
000180 3c 90 a0 bc 66 e0 c2 bd 4c 20 3b 3c ff 8f f0 3c
       -0.019600026 -0.09515457 0.011421274 0.029365538

fch.3.0.weight f4 [100, 100]
000000 7b 52 66 bd 4e ff bc bd aa 9d 8e 3d 62 dd aa bd
       -0.056231003 -0.09228383 0.06963666 -0.08343007
000010 f4 61 8f 3b 99 c0 1f 3d a5 12 6b 3d 5f ae a0 bd
       0.0043756906 0.039002035 0.057390828 -0.07845759
000020 d9 35 89 bd 7a 49 63 bd 71 79 e1 bc c0 7c 2d 3d
       -0.06699724 -0.055489995 -0.027523728 0.0423553
000030 a1 6d 0f bd 24 fc 16 bd 36 45 c5 3d fc 0e 0b 3d
       -0.03501666 -0.036861554 0.096323416 0.033949837
000040 ba e2 52 bd 24 55 a2 bd 50 b5 ce bc 1c 1a d4 bd
       -0.051485755 -0.079263955 -0.02523294 -0.103565425
000050 7a b3 05 bd 66 b7 b4 bd 06 a6 a8 3c 17 6d fa bc
       -0.032641865 -0.08824043 0.020586979 -0.030569596
000060 5f 1f 62 3d 47 d8 58 bc de 83 b8 bd ad 58 0d bd
       0.0552057 -0.013235158 -0.09009527 -0.034508396
000070 80 c2 9c 3d 78 18 2f 3d 37 c5 6e 3c 14 64 c3 3d
       0.076542854 0.042747945 0.014573387 0.09540573
000080 e1 7e cb bc ab 56 d4 bd 3c 5b a6 3d 96 be 31 3d
       -0.024840774 -0.10368093 0.0812287 0.043394648
000090 f8 69 b1 bd 45 18 24 bd 22 51 59 bc 48 1a 76 bd
       -0.0866279 -0.040062208 -0.0132639725 -0.060083658
0000a0 87 8e b0 3d 5d 84 cb 3d a4 21 a3 3c 46 28 d5 3d
       0.08620935 0.09937356 0.019913502 0.10408072
0000b0 06 b7 a7 bd a3 98 d1 bd e6 eb 93 bc 72 08 70 bd
       -0.08189206 -0.10234191 -0.018056821 -0.058601804
0000c0 d5 34 b0 bd f0 c7 19 bd f9 00 be 3d 55 d5 8e bd
       -0.08603827 -0.03754419 0.09277529 -0.069742836
0000d0 8f 3b c6 bd d3 25 56 bc e2 fe cd bc 77 b6 54 3d
       -0.09679329 -0.013070541 -0.025145952 0.051931825
0000e0 f5 f3 91 3d 19 9a b0 bd 5b 19 b4 bb 21 46 96 bd
       0.07126609 -0.08623142 -0.0054961867 -0.07337595
0000f0 79 37 01 3d ec e9 6c 3c eb ea 3a bd 66 c9 cb 3d
       0.031547043 0.014460068 -0.04563419 0.09950523
000100 aa eb 49 3d 1f 89 a4 bd 3b 63 70 3d 55 dd 94 3c
       0.049297012 -0.08033966 0.058688384 0.018171946
000110 30 88 94 bd 6a f5 84 3d 6d fb a1 3b e7 a9 0b 3c
       -0.07252538 0.064921215 0.0049433024 0.008524395
000120 fa 05 86 bd ed 04 52 3b 05 5e 80 bd b8 18 a8 3d
       -0.06544109 0.0032046393 -0.06267933 0.0820784
000130 ce f3 71 bc ea 5a 8e 3b ad 4e 59 3d 10 5c 6d bd
       -0.0147676 0.004344334 0.053053547 -0.057949126
000140 59 65 bb 3b 95 43 bf 3c 68 bc 90 bd 32 02 c0 bd
       0.0057188687 0.023347655 -0.07067186 -0.09375419
000150 da 1c 9c bd ac db ad bc 7d 26 39 3d 6d 52 17 bd
       -0.076226905 -0.021222912 0.04520272 -0.03694384
000160 8e 9a 9e 3d af e6 97 bd 27 db d6 3c 7a 94 cd 3a
       0.07744323 -0.07417046 0.026227547 0.0015684508
000170 84 41 f0 3c 55 5f b6 3c 8c 83 27 39 8c 1c fe 3b
       0.029328115 0.022262255 0.00015975366 0.007754868
000180 81 64 35 3d 30 1c 4c 3d 14 8a 6d 3d 25 00 b6 bd
       0.0442853 0.04983157 0.05799301 -0.08886746
000190 61 0c 34 3d 33 20 84 bd 80 54 c6 bd 70 8f 91 3d
       0.043957118 -0.06451454 -0.09684086 0.07107437
0001a0 a4 c8 a8 3d 19 2f c0 3d f6 b1 5d bd 6d 5d a9 3d
       0.08241394 0.09383983 -0.054124795 0.08269773
0001b0 db 45 93 bd 5f 77 c4 3b d6 ec 91 3d 90 fd 9f 3d
       -0.07191058 0.0059956755 0.07125251 0.07812035
0001c0 87 b6 8f 3d c4 f6 82 bd 79 ee a1 bd b0 bd d3 3d
       0.07017236 -0.06394723 -0.07906813 0.103389144
0001d0 b0 ad b4 3d c5 7b 10 3d b8 fc 32 bd 00 64 c8 3d
       0.08822191 0.035274286 -0.043698043 0.097846985
0001e0 ea 60 ad bd a2 17 a0 3d cb d6 c7 bc 2b ff bf 3d
       -0.084657505 0.078170076 -0.024394413 0.09374841
0001f0 f1 e4 93 bd 40 1a 73 bd e7 9f 5c bd a0 86 0b bc
       -0.072214015 -0.059351206 -0.053863432 -0.008515984
000200 16 0d 7a 3d 46 e2 a8 3d 27 0f 67 bd e2 be 9b bd
       0.061047636 0.08246283 -0.056410935 -0.076047674
000210 8d fd 3f bc ed e9 37 3d b2 63 91 3c dd a1 a1 bd
       -0.011718166 0.044900823 0.017747734 -0.07892201
000220 fe da 9c 3d 9b cb 50 3d 5d ef 45 3d 82 92 4c bc
       0.07658957 0.050975423 0.048323978 -0.012486102
000230 6a ab c3 3d 5b ac b7 3d 8f 71 14 bd 08 17 a4 bd
       0.09554179 0.08968421 -0.03624111 -0.08012205
000240 a5 00 6b 3d 6b 46 53 bd 9b 68 93 bd 15 a2 22 bd
       0.05737366 -0.051580828 -0.07197686 -0.039705355
000250 fc 8d cd 3c f6 2f 98 3c b6 6c 1c bd 50 55 34 3d
       0.025092117 0.018577557 -0.038189612 0.044026673
000260 47 24 85 3d 72 1d 69 3d 51 ce 51 3d 00 1e 0d 3d
       0.0650106 0.056912847 0.05122215 0.03445244
000270 d5 a3 0a 3d 11 06 9b bd 53 7e 08 bc 9c 1c 04 3d
       0.03384765 -0.075695165 -0.008330899 0.032253847
000280 fa 64 52 bd 29 f1 25 3d 63 f6 0b 3c d3 2f 0b 3d
       -0.05136583 0.04051319 0.00854263 0.033981156
000290 89 44 89 3d c0 2c b7 bc 57 4f bb 3c 8d ac b6 3d
       0.06702525 -0.022360206 0.02286498 0.0891963
0002a0 19 20 96 3d ce bb 6b 3c c3 28 45 bb bc 13 f7 bc
       0.07330341 0.014388038 -0.003008411 -0.030160777
0002b0 d8 89 b0 3c a2 89 b0 bc 9f e0 31 bd 90 03 90 3d
       0.021550104 -0.021550003 -0.043427106 0.070319295
0002c0 38 80 af 3c 9b 0a ae 3d eb f8 ac bb 2c 10 6c 3a
       0.021423444 0.084981166 -0.005278697 0.00090050953
0002d0 ac d8 8b bd 14 73 0e bd 7b 84 2d bd 3b 28 51 3b
       -0.06828436 -0.034777716 -0.04236267 0.0031914848
0002e0 a6 1c 06 bd cf d9 9e bd 25 5b 85 bc 66 af e1 3c
       -0.032742165 -0.077563874 -0.016278813 0.027549457
0002f0 78 e0 a6 3d ce 2a 7c 3d 12 ba 18 3c 85 6e f4 ba
       0.08148283 0.06156426 0.009321706 -0.001864866
000300 74 a9 65 bd 8c d5 0d 3c 9a 32 a6 3b 56 f2 d2 bd
       -0.056069806 0.008656871 0.00507195 -0.10300128
000310 96 51 0c 3d 24 5c 76 bd 53 8b 90 3d f8 ac a0 bc
       0.034257494 -0.060146466 0.07057824 -0.019613728
000320 f0 73 4b bd 66 f1 3f 3d 12 08 8f bd 15 47 21 bd
       -0.049671113 0.046861075 -0.06983961 -0.03937443
000330 00 0f 96 3d 12 0c 84 bd 0a 23 ad 3c c0 5f bb bb
       0.0732708 -0.06447615 0.021134872 -0.0057182014
000340 d4 cb 9e bd e6 54 06 bd cc da 87 bd 1e dc 43 3d
       -0.07753721 -0.03279581 -0.06633529 0.047817342
000350 e1 c6 bb 3d ba 28 a8 bd 41 fd 50 3c 6c f2 9c 3c
       0.091687925 -0.08210893 0.012755693 0.019158565
000360 39 08 72 3d f4 6b 6a bc 28 5b 7f 3d 4f 4b 69 bd
       0.059089873 -0.014307965 0.062342793 -0.056956585
000370 49 87 55 3d f7 d4 b6 bd 46 35 29 3d ec cb b9 bd
       0.05213097 -0.089273386 0.04131057 -0.09072098
000380 73 05 77 bd 9b 89 13 bd 5c 60 09 3d b3 06 be bd
       -0.06030793 -0.036019903 0.03353916 -0.092786215
000390 d7 b0 8d bd 34 a0 5f bd 70 c8 96 bd e7 80 aa 3d
       -0.06918495 -0.05459614 -0.07362449 0.083253674
0003a0 81 ae bb bd df 39 ad bd 87 50 95 bd 94 35 24 bd
       -0.09164143 -0.08458304 -0.0729075 -0.04009016
0003b0 87 d1 b2 bd ca e5 95 bc fa ac 0b 3d bd d8 ad 3c
       -0.087313704 -0.018298049 0.03410051 0.021221513
0003c0 a2 e1 3a 3d 01 70 be 3d b1 cd bf 3d c1 d5 5e 3d
       0.045625336 0.09298707 0.093654044 0.05440307
0003d0 47 78 a5 3d 71 b2 f5 3c 96 c2 e6 3c b3 2b f7 3c
       0.08079582 0.029992314 0.028168958 0.030172205
0003e0 35 84 b9 3d 23 1a ca bd ea 34 82 3d 51 54 b3 3d
       0.090584196 -0.098682664 0.06357749 0.087563165
0003f0 95 b6 17 3d 8d 43 7d 3c cb a5 af 3d 06 b4 c3 3d
       0.03703936 0.015458 0.085765444 0.09555821

fch.3.0.bias f4 [100]
000000 8d c5 61 3d e0 43 24 3d 36 ea c5 3c ac 82 af 3d
       0.05512004 0.040103793 0.024159532 0.085698456
000010 f8 7e ab bd de 06 cb bd 80 e9 90 3d 16 aa ce bd
       -0.08373827 -0.09913419 0.070757866 -0.10091035
000020 55 80 c6 3d 1f 6f 3f 3d 4a 12 29 3c 40 dc 8d bd
       0.09692446 0.046736833 0.010319302 -0.06926775
000030 28 3f af 3d 42 38 d6 bc 6f 92 82 3c 88 a6 96 3d
       0.08556968 -0.026149873 0.015938966 0.07355982
000040 07 65 83 3d f6 89 15 bd fc 3e e6 bc 5f 8f b3 bc
       0.06415754 -0.036508523 -0.028106205 -0.02191895
000050 2c 2a dc bc d2 d0 e0 3c d9 e6 a0 3c d1 5f 64 bd
       -0.026875578 0.027443323 0.019641327 -0.05575544
000060 9a 0e a2 3d 39 35 62 3d 18 b1 a6 3d 85 1d af 3d
       0.07912941 0.05522654 0.08139247 0.08550552
000070 0d ec 4a 3c 7f 23 be bd 9a d0 08 3d bf fc af 3c
       0.01238538 -0.09284114 0.033402063 0.021482823
000080 58 15 be bd 1c a0 05 3d 0e 85 ff bc 47 cb d4 bd
       -0.09281415 0.032623395 -0.031191375 -0.103903346
000090 5e b0 1e bd 5a b9 bc bd c9 a4 c1 bd ac bc 15 3d
       -0.038742416 -0.092150405 -0.094552584 0.036556885
0000a0 7d 44 c5 bd 39 38 f7 3c 04 5b 17 bc a7 f0 8a bd
       -0.09632204 0.030178176 -0.009238008 -0.06784182
0000b0 82 cb b8 3d 6c 7d 0a 3d 9f a9 e2 bb 5f 19 f1 3c
       0.09023191 0.033811018 -0.006917193 0.029431043
0000c0 31 1d 58 3c ae 43 1e 3c 33 15 bb bd f3 d4 4c 3d
       0.0131905535 0.009659691 -0.09134903 0.05000777
0000d0 41 a6 9a 3a ea 8a 90 bd 11 34 88 bd 52 71 e7 bc
       0.0011798815 -0.07057746 -0.06650556 -0.028252278
0000e0 bf 6b 8a bd 32 e2 6b bc c5 d9 7e bc df 2b 8e bd
       -0.06758832 -0.014397191 -0.01555485 -0.069419615
0000f0 78 1e 2c 3d 54 9a ad 3d 28 cd ef 3c 4d f3 bf bd
       0.042021245 0.084767014 0.02927263 -0.09372578
000100 14 6e 6a bb c2 30 0c bd 47 ee 8e bd a6 df c6 3d
       -0.0035771178 -0.034226187 -0.069790415 0.09710626
000110 6a f2 09 3d 3e b9 a0 bd f9 d1 96 3c 4b ed a8 bd
       0.03367845 -0.07847832 0.01841067 -0.08248385
000120 bc f8 b3 bb b8 c0 5d bd b9 c9 ea bc c0 e7 a0 bd
       -0.005492298 -0.05413887 -0.028660642 -0.07856703
000130 1e 40 41 bc ea 44 6c 3d 4e 4f 98 3d 4b 9e 9a bd
       -0.011795072 0.05768291 0.07437001 -0.07549723
000140 c9 20 80 3d 09 a9 98 bd 99 f2 4d bd b0 de 2f bd
       0.06256253 -0.07454116 -0.050280187 -0.04293698
000150 67 61 a1 bd 5a fd 9d bc fe 09 81 3d 61 c9 e1 bc
       -0.07879906 -0.019285847 0.06300734 -0.027561845
000160 57 70 3a 3d 7f b3 52 bc 03 4b 14 bd c4 24 77 bd
       0.045517292 -0.012860178 -0.03620435 -0.060337797
000170 c8 cf 79 3d c9 3f 9d bc 5d 74 ae bd ad 18 54 bd
       0.06098917 -0.019195454 -0.08518288 -0.051781345
000180 5e 0c b5 3d cf 78 ae bd e3 1f 61 bd 3b 54 8b 3d
       0.088402495 -0.08519136 -0.05496205 0.06803175
