test.pt (torch, 168130 bytes, 12 tensors)

fcs.0.weight f4 [100, 2]
00000000: e7cb 26bd 28bc bdbe cace 85bd baa8 013e
00000010: da16 02be a6d1 06bf 5a4a 463e aaeb b9be
00000020: 17ef a43e 0b68 9e3e 92ce d3be 2213 933e
00000030: 7c7c fa3d 7bc7 443e cc0e a43d 1877 07bf
00000040: ff6c 2c3f b409 f73e 9c6b 06bf 1168 91bd
00000050: bb0f 693e 2b5b 20bf 8bb6 f5be 6213 e53e
00000060: 610a a03e bdc9 a6be aa42 8fbe ba2c 203e
00000070: e024 dd3d 968e 193e d62b c3bd 337d 093f
00000080: 8897 80be 621a acbe 7687 aebe 7810 e0be
00000090: e4b9 573e 5dde e3be e51c 00bf 434f b63e
000000a0: 1e92 ac3e f754 ecbe 051d 7abe 0f74 08bf
000000b0: 69b4 2a3e e2f6 72bd bca2 bd3e fb25 eabe
000000c0: 9b98 75be 6356 223f 4628 0d3f 0db3 2f3f
000000d0: 7d4d 363e 71b2 063f 61cc 1e3f c114 0abf
000000e0: 9489 03bf fa86 203f 5114 813e bef4 993d
000000f0: b7bc 033f ebbb 19bf f955 fe3e b3ae b23e
00000100: 9a24 693e dec9 d63d 0f7a 28be 9266 9d3e
00000110: 7ea7 0c3f 8c3b a13d 03ba 9dbe 0fd0 b4be
00000120: de0a 13bd cda4 05bf d44e d7be 9b7f 4a3e
00000130: da70 10bf 3f0b 273f ef7a 413d 5fec 993e
00000140: ef36 ba3d 8d79 11bf 74f7 b83e bee1 b6be
00000150: 8f20 72bd 0ca5 b93e ffb9 e3bd a4d0 093f
00000160: 6e76 77be 650b e53e 9680 913d 1d5d d53e
00000170: 6f1a c13d 4c25 a8be 17a9 793e 943e 613e
00000180: 5ec1 f0be cda2 0cbf 7e17 31bf c466 353f
00000190: 3d0a ce3d 0de4 a23d ab29 133d 00c0 8fbe
000001a0: 513f 043f 40e4 e73e bbc9 00bf 5889 983e
000001b0: cf47 f83e 36e3 6cbd 19c9 593d 292a 083e
000001c0: e886 15bf adbe e6be 2eaf 203f 3e87 2dbf
000001d0: 9ae1 0b3e 76e2 2cbf c7eb 5fbe 62c7 abbd
000001e0: d74a 543d d238 aebe 1632 8e3e 786e 153e
000001f0: 3634 15bf cb87 8c3d fbb4 1e3f 6e0d 163f
00000200: 8b50 a6be db35 d03e c8ce 04bf 2ea9 213f
00000210: 6dfe 7d3e 5cca 7a3e e6a5 04bf b453 71be
00000220: f648 1fbf dbb9 b33e e537 16bf e5ef 85be
00000230: defc 53bd 4267 963e 27fe 3a3e 2058 563e
00000240: 5795 0d3f bd86 883c e616 afbd c8f4 8cbe
00000250: 9a67 34be 9189 13bf 85d4 e03e 7188 233f
00000260: 3b94 db3e 9812 ab3e 1efc 40be 8e2d 12bf
00000270: d1bf 2b3f 521a 56be ea66 8cbe ef5f 07bf
00000280: 4e63 f5be 2735 0a3e a429 d03e 5a29 20bf
00000290: ad1b 1fbf 7110 bfbd 87cb 14bf 61ea 103f
000002a0: f38f 2e3b 40ca 05bf e8e1 343e 8138 033f
000002b0: e18b d73d 1fa1 01bf e6da f63d ecaa 06bf
000002c0: d7e2 ce3e a2c7 8dbd 7068 233e 62c2 c3bd
000002d0: 743d 12bf ccca 423e 762b 183f de96 16be
000002e0: 0e4c 80be 7095 11bf 0d27 c1bd 5dae 2c3f
000002f0: 6189 35be a2b8 48be bf8f f73e b615 13bf
00000300: f899 d3bd 656c 6cbe b0e2 84bc 887c e5be
00000310: f00f 9b3c e827 c03d e91d 003e d539 d8be
-0.0407218 -0.37057614 -0.065335825 0.1266202 -0.1270403 -0.5266365 0.193643 -0.3631261
0.3221366 0.30938753 -0.41368538 0.28725535 0.12230775 0.19216721 0.08010635 -0.529161
0.67353815 0.4824959 -0.5250795 -0.07099927 0.22759907 -0.6263911 -0.47990832 0.4474135
0.31257918 -0.3257579 -0.27980548 0.15642062 0.10798049 0.14995798 -0.095298454 0.53706664
-0.2511561 -0.33613878 -0.34087723 -0.43762565 0.21067005 -0.44505587 -0.5004409 0.35607347
0.3370523 -0.46158573 -0.24425133 -0.5330209 0.16670384 -0.059317477 0.3703822 -0.45732102
-0.23983996 0.63413066 0.5513958 0.68632585 0.17802997 0.5261603 0.6203061 -0.5393792
-0.513818 0.6270596 0.25210813 0.07517384 0.5145983 -0.60052365 0.49674967 0.3489891
0.22767869 0.10487722 -0.16452812 0.30742317 0.5494307 0.07872686 -0.30805978 -0.35314986
-0.035899036 -0.5220459 -0.4205233 0.1977524 -0.564222 0.65251535 0.04723638 0.3006315
0.09092509 -0.56826097 0.36126292 -0.35719103 -0.05911308 0.36258733 -0.1111946 0.53833985
-0.24166271 0.44735256 0.07104604 0.41672602 0.0942887 -0.32840955 0.24380909 0.21996528
-0.47022527 -0.54935914 -0.6917647 0.7085993 0.100605465 0.079536535 0.03592841 -0.28076172
0.51659113 0.45291328 -0.50307816 0.29792285 0.48492286 -0.057833873 0.053170297 0.13297333
-0.58408976 -0.4506735 0.62767303 -0.6778449 0.13660279 -0.6753305 -0.21867286 -0.08387639
0.051829185 -0.34027725 0.27772588 0.14592922 -0.5828279 0.06861838 0.61994904 0.5861424
-0.32483324 0.40666088 -0.51878023 0.6314877 0.24804087 0.24491256 -0.5181564 -0.23567086
-0.62220705 0.35102734 -0.5867904 -0.26159588 -0.051754825 0.29375654 0.18261014 0.20932055
0.55306 0.01666581 -0.085492894 -0.27530503 -0.17617646 -0.57631785 0.4391214 0.6388007
0.42886528 0.33412623 -0.18846175 -0.5710076 0.67089564 -0.20908478 -0.27422267 -0.5288076
-0.47927326 0.13496839 0.4065677 -0.625631 -0.62151605 -0.09329308 -0.5812306 0.56607634
0.0026636093 -0.52261734 0.17664301 0.51258093 0.10524727 -0.50636476 0.1205347 -0.52604556
0.4040744 -0.069228426 0.15957808 -0.0955856 -0.5712502 0.19022673 0.59441316 -0.14705989
-0.25058025 -0.5686865 -0.094312765 0.6745356 -0.17728187 -0.19601682 0.48351857 -0.57455003
-0.103321016 -0.23088224 -0.016221374 -0.44821572 0.018928498 0.093826115 0.1251141 -0.42231622

fcs.0.bias f4 [100]
00000000: fe86 293e 02b4 1bbf dc78 003c 7b30 aa3d
00000010: 8517 46be be91 45bd 4e41 553c b8a8 bb3e
00000020: efe1 213f 7512 24bf c8e8 0d3f 4f73 733e
00000030: 36bd 2d3f 899b 1d3f 71da 80be 7e49 a9be
00000040: dd20 f83e 3633 d43e 46c6 193f 00e5 95be
00000050: a922 3e3e 52c8 81be 3318 04bf 9559 df3e
00000060: d51a 103e 65ec 113f 6cda b83e c5a1 f8be
00000070: f207 a4be 20d9 573e 2cde 083f 2b7a 19bf
00000080: 344a 2e3f 2b97 e23e cc70 43bd 468c 2dbf
00000090: 47da 9cbe a1df fb3e 8701 703e 1c86 e53d
000000a0: 836c 18bf a54d 29bf 8f26 1ebf 9af5 0ebb
000000b0: b571 d6bd 6a24 d0be 3e5d 2d3f 4dc3 30bf
000000c0: 4eb5 2bbf 1938 1fbf f239 b4be bb20 373d
000000d0: c370 4cbe 243d 3b3d 74eb 0b3f e15f 07bf
000000e0: 605c a5be 2625 2d3f dd04 20be 5b0f 7abe
000000f0: 5d00 e93e 804f 273f 2537 67be b1c7 07bf
00000100: aa90 303f d81f 193f da74 863e 0d20 d83d
00000110: 2575 a9bd eaf5 cdbe da7b 23bf 078e 2f3f
00000120: 98e3 7f3e 5948 233f 8ef0 223f 22ed 20bf
00000130: 785d 6d3e 2b10 00bf aa27 e33e 5db4 253f
00000140: 840e 283f 0ada 013f be9d 4b3e 4036 4fbe
00000150: 0c31 783e 8a09 d6be c6ad 22ba f203 da3e
00000160: 253b 10bf 3253 f83d 418d 0f3f 66b6 8b3e
00000170: b9e9 853e 7ded 623e 2c3e b7be b9d0 c83e
00000180: fcdd d83e e8e2 09be 2637 1ebf b9f6 56bd
0.16555402 -0.60821545 0.007841315 0.08310028 -0.1934491 -0.048234694 0.013016058 0.3665216
0.6323537 -0.64090663 0.5543332 0.23774455 0.6786684 0.6156545 -0.25166658 -0.33063883
0.48462573 0.4144532 0.60068166 -0.29276276 0.1856791 -0.25348145 -0.51599425 0.43623033
0.14072736 0.57001334 0.36104143 -0.4856092 -0.32037312 0.2107892 0.5346401 -0.5995204
0.68081975 0.44255957 -0.047714993 -0.67792165 -0.30635282 0.49194053 0.23438083 0.1120722
-0.59540576 -0.661341 -0.61777586 -0.002181387 -0.10470907 -0.40652782 0.677204 -0.69048005
-0.67073524 -0.62194973 -0.3520046 0.04470895 -0.1996489 0.045712605 0.5465615 -0.52880675
-0.3229704 0.6763481 -0.15626855 -0.2441992 0.4550809 0.6535568 -0.2257963 -0.5303908
0.6897074 0.59814215 0.26261026 0.10552988 -0.08274297 -0.4022668 -0.6386086 0.6857609
0.24989164 0.6378227 0.6364831 -0.62861836 0.23180187 -0.5002467 0.443662 0.6472834
0.6564715 0.50723326 0.19884393 -0.20235538 0.2423746 -0.41804153 -0.0006205704 0.42581135
-0.5634025 0.12125243 0.5607491 0.27287596 0.2615488 0.22160907 -0.3578962 0.39221743
0.4235686 -0.13465464 -0.618029 -0.052481387

fch.0.0.weight f4 [100, 100]
00000000: 22bd 7c3d f05b 843c 360b 813d cbf4 43bd
00000010: 025b 7fbd 2da6 9dbd e5ab a2bd 9628 713b
00000020: f13e 86bd 0682 79bd 7d0c 05bd 90ce 8f3c
00000030: b04f 8abd 21e8 f93b 589e a7bd e0c3 393d
00000040: d996 68bd a744 bd3d 11f0 a23d e8f0 6abd
00000050: e544 a0bd d3ba c43d 0c7f febc 640a dabc
00000060: 1659 c8bc 079f 5e3d c412 c6bd 81a2 2fbd
00000070: ea38 a7bd 9e1a 913c 6f7e 95bd ad0b a53d
00000080: 0d7c a13d 12c7 c3bd e664 3f3d 8091 7bbd
00000090: 12aa 86bd fead 1dbc 2fed 73bd 23bf 003d
000000a0: 271a 963d e71e 18bc e989 f4bb 4102 b93d
000000b0: 639f a13d f061 a6bc e0f3 adbc 4c6a 1d3c
000000c0: ac98 273d 8fb9 b93c 4756 98bd 3a7b fcbc
000000d0: 4650 24bd 7aba 24bd f74d d2bb a0da e3bc
000000e0: dc4e 95bd c8d9 d2bd aa18 adbd d7e0 973d
000000f0: dc1d c23d 5d56 253d 6cb6 bd3d a497 a43d
00000100: 9d94 c6bd eb41 70bb dcef f8bc c82c 7abd
00000110: 5d0f 9cbd fe9b 453d 4ff0 7d3d 7aed 703d
00000120: 4b40 b7bb 71f3 4f3d 37ba b73d e7f3 c4ba
00000130: 58ea 2a3d 0ea9 90bc c856 71bd c867 8f3d
00000140: 2b2f 2b3d c5a2 23bd e2c6 a43b 422f 9bbd
00000150: 3573 703c 09e7 423d 5810 1b3d 898e 7fbd
00000160: 47bf c7bb 2e1b 273d 384a 003d 3b0a a83d
00000170: 6587 b83d 9b72 ca3b eb80 67bd c950 603d
00000180: 0c48 7a3d cf36 00bd a210 723d e340 663d
00000190: 730f 9abd c095 7bbc 4bfe 2ebd 5dfe 313c
000001a0: 0c52 4fbd 8ae8 f9bc 9cfe 3b3d 56f1 5c3d
000001b0: 668d afbd 96d6 cdbc d025 843d cfd6 723d
000001c0: a3d7 debc e882 e1bd cf50 cf3c 7b07 8d3d
000001d0: 294a 9d3d 2e70 8fbd 96e1 9dbd c919 34bd
000001e0: 0f6f a33c 7011 c0bd 2274 66bd 772f 6bbc
000001f0: bd29 2cbc c9b1 16bc 50d5 b1bc 0e6e bb3c
00000200: d7a8 6abd 3eb9 863d 7853 813d 2874 53bd
00000210: e51a 223d 9a87 333c 90b1 9a3d 2935 80bc
00000220: 9871 fb3c 2f1c 16bc d0a4 39bd a932 9a3d
00000230: c470 91bd 4cb7 b2bd de7c 293d 1143 c73c
00000240: a66b f63c 459f 203d a4df 1e3d 891b 513d
00000250: 68df 8ebd c87d 653d 964b 8b3d 6c8d 4abd
00000260: 5f16 cb3c 058e 853d 3190 003d 3135 4b3c
00000270: 2d8c 4abd 7472 9c3d b76e 853d 2915 293d
00000280: fcc1 85bd 5af9 f43c 679d e33c d28c 4dbd
00000290: a3aa d7bc 94c5 d6bd d852 a83d 365a 433b
000002a0: a5f5 563d e582 10bc 82d6 8c3c 6f75 253d
000002b0: fa6e 793d ab32 20bc bcdc 9abd 4bfc 71bd
000002c0: b6fa b23c 1fad 18bc 5bcf 97bb c51a a23d
000002d0: 2b8b afbd 84a3 8e3d 2b4d c2bc 91dd 82bb
000002e0: 9681 58bd 489a d7bc 59a5 fe3c 3b89 92bd
000002f0: 4420 bf3d e4fd 9d3c 32c3 6d3d fd1f 08bd
00000300: edb0 9a3d 766c 403c 8c2e 87bb 67d2 173d
00000310: d7dd aabd 7b07 34bd feb7 69bd 0edf 41bd
00000320: 76a0 5dbd 24ea 3a3d 1e5f 85bd 1361 88bb
00000330: 29a2 c7bd 2e3e 07bd fe8d 183d aabd 2f3d
00000340: 1606 bf3d 4919 5c3a 008b 98bd 8b30 29bd
00000350: e458 943d ebe1 6b3d 780b 6d3d eca5 b2bd
00000360: bca6 a1bd 890e 5e3d e3bf 743c 9237 76bd
00000370: d9e4 2d3d 24ee 74bc 014d b8bb 1ccd ed3b
00000380: 7559 8c3d 2393 b63d d090 58bd d2c3 aa3d
00000390: 06aa 5b3d 49ab 233d 17e4 033d 1683 99bd
000003a0: ce8d f13c 24bb c1bc aae2 86bd 3227 813d
000003b0: c3b0 41bd ac68 4ebd 22a2 1cbd 4b88 393d
000003c0: f0ce c83d c6e0 4d3d 146a 48bd 4a14 523d
000003d0: c3fe 463c e4fa b63d 4144 fd3c 2c70 723d
000003e0: 2aab 753d 0126 b8bd 3469 85bd d616 9e3d
000003f0: b55d b43d cc51 a9bd 217d 6a3d 1077 10bc
0.06170381 0.01615712 0.063009664 -0.047840875 -0.06234265 -0.07697711 -0.079429425 0.0036797873
-0.06554974 -0.060915016 -0.032482613 0.017554551 -0.067534804 0.007626549 -0.081844985 0.045352817
-0.056784485 0.0924161 0.07955945 -0.057358652 -0.078256406 0.096059464 -0.03106644 -0.026616283
-0.024456542 0.05435088 -0.09671548 -0.042879585 -0.08165152 0.017712887 -0.07299506 0.080588676
0.07884989 -0.09559454 0.046727084 -0.061418056 -0.06575407 -0.0096240025 -0.059552368 0.031432282
0.07329207 -0.009284711 -0.0074627292 0.09033633 0.07891729 -0.020310372 -0.021234453 0.009607863
0.040917084 0.022671489 -0.07438331 -0.030820478 -0.040115617 -0.0402169 -0.0064179855 -0.02781421
-0.07290432 -0.10295445 -0.0845197 0.07415932 0.094783515 0.040365566 0.0926331 0.08036736
-0.096963145 -0.0036660384 -0.030387811 -0.061077863 -0.07620118 0.04824447 0.061996754 0.058820225
-0.005592381 0.050769273 0.089710645 -0.0015026302 0.041727394 -0.017658737 -0.05892065 0.070022166
0.04179303 -0.03995015 0.0050285915 -0.07577373 0.014675905 0.047583614 0.037857383 -0.06239179
-0.0060958 0.040797405 0.03132078 0.08205076 0.090101995 0.006178213 -0.05651943 0.054764543
0.061103866 -0.03130227 0.059097894 0.056214225 -0.07522478 -0.015355527 -0.04272298 0.010863868
-0.050615355 -0.030506391 0.04589711 0.053941093 -0.085718915 -0.025126737 0.06452525 0.05928689
-0.027202433 -0.110112965 0.025307087 0.068861924 0.076801606 -0.070038185 -0.07709043 -0.043969903
0.019950418 -0.09378326 -0.056263097 -0.014354578 -0.010507998 -0.009197661 -0.02170816 0.022879627
-0.057289924 0.06578301 0.063147485 -0.051624447 0.03957643 0.010957623 0.075533986 -0.015650349
0.030693814 -0.009161993 -0.045323193 0.07529194 -0.071015865 -0.08726367 0.04137885 0.024323972
0.030080628 0.03921439 0.0387875 0.05105165 -0.06976205 0.056028157 0.06801526 -0.049451277
0.02479094 0.06521229 0.03138751 0.012402819 -0.04945009 0.07639018 0.06515258 0.041279946
-0.0653114 0.029904056 0.027785016 -0.050183125 -0.026326483 -0.10486904 0.08218926 0.0029808409
0.05248036 -0.00882027 0.017192129 0.040395197 0.06089685 -0.009777705 -0.07561633 -0.059078496
0.021848064 -0.009318619 -0.004632873 0.07915262 -0.08571466 0.06964782 -0.023718437 -0.003993698
-0.052857958 -0.026318684 0.031084703 -0.07155081 0.09332326 0.019286104 0.05804748 -0.03323363
0.07553277 0.011744609 -0.004125422 0.03706589 -0.08343094 -0.043952446 -0.057060234 -0.047331862
-0.054108106 0.04563345 -0.06512283 -0.004161963 -0.097477265 -0.033018284 0.03724479 0.042905487
0.09327333 0.0008396102 -0.07448387 -0.04130606 0.07243517 0.0575885 0.057872266 -0.08723053
-0.0789313 0.05421308 0.0149383275 -0.06011159 0.042454574 -0.014949355 -0.005624414 0.007257117
0.06853 0.08914783 -0.05287248 0.08338131 0.053628944 0.039958272 0.032199945 -0.07495706
0.029486563 -0.023648806 -0.065862015 0.06306304 -0.047287714 -0.05039279 -0.03824056 0.045295995
0.09805095 0.05026319 -0.04892929 0.05128888 0.012145701 0.08934572 0.030916335 0.059189007
0.059977688 -0.08991624 -0.065142065 0.07719199 0.08806936 -0.08267555 0.05724824 -0.008817449

fch.0.0.bias f4 [100]
00000000: 2c8f 22bc f397 a23d be94 00bd 76e3 8c3d
00000010: e5ad c33d 2b3b b63d 5c8b 9fbc e067 a03d
00000020: 70d9 8abd fbce 64bb a99b 553c 3fc5 683d
00000030: 8e8f 623d 2e1d 943d 803a a0bd 87b5 20bc
00000040: dccb 0ebd 68fd d23d 962e 41bd 335e c33d
00000050: c932 7c3d 19a0 4dbc a868 95bd 56ef 4e3d
00000060: b7dc 4fbd 3fcb 5d3d 33c7 cb3d 359a 783d
00000070: 5011 e93c 38a1 443d 9e17 8b3d 842e a33d
00000080: 89a4 d8bb de67 8c3d 85dd b73c 6acf 8dbc
00000090: 8761 13bd 948a 28bd 90be 8c3d 5f74 503d
000000a0: e690 2e3c c3fb b53c f4af a8bd cafb 673d
000000b0: a44e 863d df0d abbd 57a0 143d af5b babd
000000c0: 05c8 fdbc 8717 633d 928c 0b3d e850 d1bd
000000d0: 5b4d 983c 69bf 8f3d b653 383d a6e1 5abb
000000e0: a14a 093d 15e8 fe3c 514b a7bd 266d 303d
000000f0: f1d3 c4bb cd7c 8dbc b0f3 923d 0e4d d73d
00000100: 366b 88bd f546 a13d c62f 323d 6ebf abbd
00000110: cd48 0e3d cc24 873d 21da afbd ed32 233d
00000120: 1226 2abd fed5 c03c 5099 01bb 030c 793d
00000130: fbbd 8b3d 5190 b53d 82e8 59bd 96e4 033c
00000140: 08a5 1f3d 6666 55bd b5c6 923d 8c22 bb3d
00000150: bb1b eb3b 6c44 c03b ea5b 523d 9b9a ac3d
00000160: 76df b2bd 9efa b8bd fdb2 913d 6de7 673d
00000170: 6dbd c3bd 0e4e 1c3b c318 613c 5bb7 663d
00000180: 43a7 453b c800 57bd 7195 393d 9b5b 5fbc
-0.00992183 0.07939138 -0.03139185 0.06879322 0.09554652 0.08898004 -0.019475631 0.078323126
-0.06779754 -0.003491341 0.013037601 0.056828734 0.055312686 0.07232128 -0.07823658 -0.0098089045
-0.034862384 0.1030224 -0.04716357 0.095394515 0.06157187 -0.012550377 -0.07295352 0.050521217
-0.0507476 0.05414891 0.099501036 0.06069394 0.028450638 0.048005313 0.06791614 0.079678565
-0.006611411 0.068557486 0.022444496 -0.017310817 -0.03598168 -0.041147783 0.068722844 0.05089223
0.010654664 0.022214776 -0.082366854 0.05663661 0.06557968 -0.08352255 0.036285724 -0.090995185
-0.030979166 0.05544236 0.034069605 -0.1022051 0.018591573 0.070189305 0.045001708 -0.0033398657
0.033518437 0.031116525 -0.08168662 0.043072842 -0.0060067107 -0.017271424 0.07175386 0.10512744
-0.06661074 0.07874862 0.04350259 -0.08386122 0.034737397 0.06598815 -0.08586527 0.03984349
-0.041540213 0.02353954 -0.001977522 0.06080247 0.06823345 0.08865417 -0.053200252 0.008050105
0.038975745 -0.052099608 0.071668066 0.09137449 0.0071749366 0.0058675315 0.051357187 0.08427926
-0.08734028 -0.090321764 0.071142174 0.05661719 -0.095576145 0.0023850235 0.013738814 0.056327205
0.003015951 -0.05249098 0.045308534 -0.01363268

fch.1.0.weight f4 [100, 100]
00000000: 0a87 ccbd 580c 33bc ce34 a3bd b6cf 963c
00000010: d6a7 b9bd b612 8f3d 5935 23bd e7cb 233c
00000020: 1680 35bd 0518 abbc ce79 90bd 7f11 823d
00000030: 1b8f 9cbd c811 b43d 4992 26bd 083b 873d
00000040: 7389 c2bd c28e c23d 89fa adbc 3585 93bc
00000050: 9203 acbd 8ba1 693c 4472 66bd 36e8 4c3d
00000060: 88bd 2bbd c3fd 5a3b d8f1 99bd 10f0 a3bc
00000070: 590a b2bd 4366 683d 352e 1e3d 6efb bf3d
00000080: 057a 133d d11d 8f3d 0cab 683d 9e92 363c
00000090: 09fb 83bc a4eb b03d 7a80 f93c 8afa 2d3d
000000a0: aa79 fa3b 913e 623d 8397 8c3d 16a8 5f3d
000000b0: 0daa 17bc 84dc 0cbd 2b61 993d 3b1a 463c
000000c0: 3357 7a3d 5c69 06bd ad0e b6bd ac47 6dbd
000000d0: 504d dbbb 6d01 613d 9fb8 1ebd 9c1a 89bb
000000e0: 84ea 8e3d f6ea 7f3d d46e 8eba 0719 b23d
000000f0: e4ec 3e3a f259 27bc 86ae 493d 4ef7 893d
00000100: 2406 61bb a5d0 3ebd d3b8 b93d 3dac 34bc
00000110: fc9b b6bd c44f ae3d fc9d 8c3d 6511 67bb
00000120: c38f 013d 8013 983d edc4 aebb 0136 b03d
00000130: 33a4 8fbd da02 863d 1b65 d1bc 4b3b b5bd
00000140: 1e46 233d 96a2 05bd 869d 0d3c 1767 2e3d
00000150: 5a4a 823d 89c0 7b3d 9deb 36bc 93d9 7e3d
00000160: 34b4 ac3d 48bb c9bb 0ab4 f73c 0ab3 ab3d
00000170: 1d98 1d3d d636 79bd fd39 60bd d466 96bc
00000180: 2cb2 ad3d 74b4 10bd 3ef4 d43c 12d2 4dbb
00000190: f6c7 bebd 93c5 80bd 2a09 833d e204 2a3d
000001a0: 9fe5 933d d014 523d f3f1 993d 8809 b8bd
000001b0: 9278 133d 735c babd b0eb 7e3d de0a bc39
000001c0: 1ba5 c4bd d001 a93d 52f9 e4bb e693 bebd
000001d0: 08c0 52bd 1826 ad3c 6625 46bd 774d c83d
000001e0: 939c 713d ff0b be3a 7176 38bc d1b1 083c
000001f0: c2fe a3bc 8ff9 253b b6b7 a13d ab51 bebc
00000200: a11a a6bd 4cfd 9cbb 6325 2bbd 2740 c03d
00000210: 4e58 48bc 5919 d9bc 5191 9b3d 8d04 293d
00000220: 089e ae3d 31df 19bc cbee 57bc 09e2 69bd
00000230: 05e1 183d 477b 273d 3c26 52bd 31ae 85ba
00000240: 3be7 b93d c227 5bbc 4756 f1bc fab1 13bc
00000250: a54d 84bd c6ee 0ebd 0a0e 3ebc c2e2 5d3d
00000260: fe26 aebc 18f1 76bd e79e 0e3d 2a41 90bd
00000270: c8b7 ae3d 73a6 69bd d9a8 9ebd 4dce 80bd
00000280: febc b13d cf75 f9bc e154 6bbd 1131 993d
00000290: 680a 263c 07a8 343d 81ef 6e3d ebcb c5bd
000002a0: e07e 67bd b015 52bb f406 ef3b eed8 f73c
000002b0: e584 3d3d bf8a 753d f49e bf3c aa1a 513d
000002c0: 3757 91bd 388f 483c 5090 86bd 4438 f53c
000002d0: a1f8 6c3d a284 9c3b 3430 013d 912f f7bc
000002e0: ef7a c93d 156f 8eba 5cdd 5dbd f7e6 9cbc
000002f0: 30c3 933d e211 10bd 3e1e 73bd ec5f 6fbd
00000300: 18fd 12bc 5cc6 3fbb 139e b53c 0d17 cbbd
00000310: 9b7c c23d 8e76 fbbc 861d 803d 3a51 723d
00000320: f5cf e93b dbc7 59bd 47ba 16bc d120 393d
00000330: 1a9c c3bd 355e a1bd 9588 903d 4b34 803d
00000340: 5951 89bd 3ad7 ae3d fe54 a23d 083f 1e3d
00000350: e3a1 683d da8e 123d 9066 cdbd 994e 933d
00000360: 2c90 a83d 8bd6 c33d 9c5a 9a3c acb6 0ebd
00000370: 4730 e8bc e526 a6bd 7175 493d 25e7 c83b
00000380: 3ab0 b8bd faed 973d 7f2b bbbd 3757 783d
00000390: 634e 3fbd 6413 903d d88e 85bc f672 103d
000003a0: cc6d e13c 9f12 bcbd 8d99 643d c837 18bd
000003b0: 3b42 b63d 15e3 a2bd 9595 303d 5000 c0bd
000003c0: a4a9 95ba fd1f 853d a2a9 d3bc 77a8 b0bd
000003d0: 5c55 bdbd 43aa 31bc f1ce c7bd d3af 98bd
000003e0: 987c 823d 31eb 863c e18f c33d 3a6b 493d
000003f0: 7982 0ebd 7c71 5fbd 1819 963d 40e0 0b3d
-0.09986694 -0.010928236 -0.07969056 0.018409591 -0.09065215 0.06985991 -0.0398458 0.009997345
-0.044311605 -0.020885477 -0.070544824 0.06350993 -0.07644483 0.08792454 -0.040666852 0.06603056
-0.094988726 0.09499885 -0.021237629 -0.018007854 -0.083991185 0.014259706 -0.056261316 0.05002614
-0.041928798 0.0033415414 -0.07516831 -0.020011932 -0.0869338 0.05673815 0.038618285 0.09374128
0.03600504 0.06988109 0.056803748 0.011143355 -0.016110914 0.08638695 0.03045677 0.04247526
0.007643898 0.05523545 0.06864836 0.05460366 -0.009256852 -0.034389988 0.074892364 0.012091215
0.061118316 -0.032815322 -0.08889518 -0.05792968 -0.006692566 0.054933 -0.038750287 -0.0041840803
0.06978324 0.062479936 -0.001086677 0.0869618 0.0007283224 -0.010214316 0.049238704 0.06736623
-0.0034335935 -0.046585698 0.090684555 -0.011027393 -0.089164704 0.08511308 0.06866071 -0.003525817
0.031631242 0.07425594 -0.005333534 0.086040504 -0.070137404 0.06543513 -0.025560906 -0.088492
0.03986179 -0.032625757 0.008643514 0.042578783 0.06361838 0.061462913 -0.011164573 0.062219214
0.084328085 -0.006156359 0.030237217 0.08383758 0.038475145 -0.06084331 -0.054742802 -0.01835958
0.08481249 -0.035328344 0.02599537 -0.003140573 -0.09315483 -0.06287684 0.06398232 0.041508563
0.07221531 0.05128938 0.07516851 -0.08986193 0.036003657 -0.090996645 0.062236488 0.0003586625
-0.09601804 0.08252299 -0.006987729 -0.09305553 -0.051452667 0.021136329 -0.04837551 0.097804
0.05898721 0.0014499425 -0.011258707 0.008343176 -0.020018939 0.002532575 0.07896368 -0.023232302
-0.08110548 -0.0047909375 -0.0417837 0.09387236 -0.012228085 -0.026501345 0.07596076 0.041264106
0.08526236 -0.009391592 -0.013179491 -0.05710033 0.03732397 0.04088905 -0.051305994 -0.0010199008
0.09077307 -0.013376178 -0.029460086 -0.009014601 -0.06460122 -0.03489568 -0.011600027 0.05417133
-0.021258827 -0.06028852 0.03481951 -0.07043679 0.08531147 -0.057043504 -0.07747049 -0.06289349
0.086786255 -0.030451683 -0.057453994 0.07480062 0.010134317 0.044105556 0.058333877 -0.09658035
-0.05651748 -0.0032056384 0.00729453 0.030254807 0.046269316 0.05994677 0.023391224 0.05105082
-0.07096713 0.012241177 -0.06570494 0.029934056 0.0578543 0.0047765533 0.03154011 -0.030174049
0.09837901 -0.0010866845 -0.054166183 -0.019153101 0.072149634 -0.035173304 -0.059355013 -0.058441088
-0.008971475 -0.0029262519 0.022170102 -0.09916506 0.09496423 -0.03069618 0.06255631 0.059159495
0.007135386 -0.053169113 -0.009199685 0.04519731 -0.095512584 -0.07879297 0.07057301 0.06259974
-0.06704969 0.08537145 0.07926367 0.03863433 0.056795012 0.035780765 -0.10029328 0.07192726
0.082306236 0.09562405 0.018842034 -0.03484218 -0.028343333 -0.08112887 0.049184266 0.00613107
-0.090179875 0.07418437 -0.091391556 0.06063005 -0.046705615 0.070349485 -0.016303465 0.035265885
0.027518176 -0.09183239 0.0558105 -0.037162572 0.08899351 -0.07953469 0.043111403 -0.093750596
-0.0011418355 0.06500242 -0.025837723 -0.08625882 -0.09244797 -0.010843816 -0.09756268 -0.07455411
0.063714206 0.01646957 0.09548927 0.049174525 -0.034792397 -0.054551587 0.07329005 0.03414941

fch.1.0.bias f4 [100]
00000000: c5fe 9dbd fbde 83bd 1226 a93d 044a b3ba
00000010: 6009 9dbd 8841 6f3d f284 8bbc 9bbb 233d
00000020: 583e b83c a318 4a3d b9f2 39bd f344 353d
00000030: cdf4 c2bd f405 7abd a5d1 ed3b fe95 2fbc
00000040: 8161 e9bb 3a97 a7bd b334 cabd 534b e6bc
00000050: f78a 96bd b05b 1b3d 0d32 22bd 0adb 53bd
00000060: cab2 03bd d867 9fbd 75f6 86bd fbaa bcbd
00000070: 08b0 bc3d a2d8 843d 9c68 efbc a608 883d
00000080: 5d51 b93d 8270 bd3d 39bd 69bd 4971 c63d
00000090: eafc bfbd 638a 943d 61c8 663c 5ec1 32bd
000000a0: 4eeb 6b3d 8e08 83bd a7de 02bd 5e17 1ebd
000000b0: 2dae 953b 04a1 b3bd 8177 5f3d db2d 8dbd
000000c0: e47e 5b3d cbb2 8abc e7f9 bf3d 6b17 91bc
000000d0: bde1 a13d 6cba bb3d b018 96bd a607 b93d
000000e0: 325c 423d 609c 1d3d c780 833d d467 7cbd
000000f0: 21b5 203d ed12 c33b 5092 bdbb 880f 8e3b
00000100: a266 5abd ca2a 313d b8d6 4a3d 40a1 9bbd
00000110: 01f9 1abd 20ca c8bd abc0 85bd 3c38 823d
00000120: 0466 2f3d 4b5c 83bd 7d44 4d3c cdd5 d7bc
00000130: da84 693d f558 1d3d bd05 023d f535 4ebd
00000140: d776 e2bc 5dad 393d bc11 913c ada6 fcbc
00000150: 7b6e 283c caa6 8c3c 1160 aebd b178 583d
00000160: 78c8 b93d 0560 ad3c e140 603d b2d1 97bd
00000170: 83b6 cc3d 28c4 493d af1c b73d e4f1 adbd
00000180: 6f2f c539 8f77 05bd 0d59 f0bc f1fc 933d
-0.07714609 -0.064390145 0.082592145 -0.0013678675 -0.07667804 0.058412105 -0.017031167 0.039973836
0.022490665 0.0493399 -0.045397494 0.04425521 -0.09519348 -0.061040834 0.0072576576 -0.010716913
-0.007122219 -0.08183141 -0.09873333 -0.02811209 -0.07350724 0.037929237 -0.039598513 -0.051722564
-0.03215293 -0.077834785 -0.06589977 -0.092122994 0.09213263 0.06486632 -0.029224686 0.066422746
0.09048722 0.09249975 -0.057065222 0.09689576 -0.093744114 0.07252958 0.01408586 -0.04364144
0.05759745 -0.06398116 -0.03195062 -0.038596503 0.0045678825 -0.08770946 0.054557327 -0.06893512
0.05358781 -0.016930958 0.09373837 -0.017711362 0.07904384 0.091664165 -0.073289275 0.09034662
0.047451206 0.03847921 0.06421047 -0.061622456 0.039235238 0.005953184 -0.005785264 0.0043353476
-0.053320535 0.043253697 0.049521178 -0.07599115 -0.037835125 -0.09804177 -0.06530889 0.06358382
0.0428219 -0.06414088 0.012528536 -0.026347065 0.057011463 0.038414914 0.031743754 -0.050344426
-0.027644558 0.045331348 0.017708652 -0.030841196 0.010280247 0.017169375 -0.08514417 0.052849475
0.090714395 0.02116395 0.054749373 -0.07413043 0.09995749 0.049259335 0.08941018 -0.084934026
0.0003761011 -0.032584723 -0.029339338 0.07225979

fch.2.0.weight f4 [100, 100]
00000000: 50d7 253b 0b9e 56bd 293b 5d3d 1a8e a7bd
00000010: ad70 983d bd1c 9bbd 3584 75bd 76e1 983d
00000020: b497 7b3d df23 b53d 1ad1 a1bd f260 9d3d
00000030: 310a 5fb9 cc4d a1bd f796 26bd 7235 b1bd
00000040: 22ff d5bc ac22 333d a610 c8bd 5108 6fbc
00000050: d9db 12bd c355 ab3d c73a c4bd 8d7e c6bd
00000060: 534d 903d cc02 803c c054 8c3d 64f7 aa3d
00000070: 9a74 713d db42 943d 4183 b03d 5105 fa3c
00000080: 4eaf c03c 61c8 52bd 8726 81bd 0ad3 ac3c
00000090: 99e4 6bbd b555 623c 5576 67bd 333c acbd
000000a0: f53b 693d c627 52bd 2946 bdbd 826a 9cbd
000000b0: 9216 4dbd fbc4 1ebd 6ffc c23d f166 22bd
000000c0: f9ee fc3c c0ff fbbc 84ac 303d 7879 dabc
000000d0: 33f2 f4bc 90ef 1cbc 0f71 31bd 7173 cb3c
000000e0: 1517 443d 4878 eb3c 5995 cdbd ac43 4e3d
000000f0: 6263 67bd 5964 8c3d 4802 cebc e81b b1bd
00000100: 264e 093d 5e16 22bd 31aa 9ebc 90d7 3abd
00000110: 34ec 8bbc a97c 573d 1dba bc3d 36b2 80bd
00000120: 527a ccbd e873 043d 6b52 c0bb 352b 8bbd
00000130: 63ab 2a3d cd17 aebd 20d6 53bd 5385 a13c
00000140: 593c 973d 8530 c03c 6c72 be3d 6490 77bd
00000150: ba4c b53d 0e82 873d 9cd8 ec3b 87d5 45bc
00000160: 5783 b0bd 78fa 2f3c 28a1 6dbb 78f0 6a3d
00000170: 2049 d63c 5ca3 92bd e281 bfbd a228 95bd
00000180: 5209 8a3c a01d 513c 914d 18bd d67f 8fbd
00000190: 450d ccbd bb2c 7dbc 1826 efbc f8ad c93d
000001a0: 2c5d ba3d ca4c abbd daf5 193c 267d 1d3c
000001b0: f800 b4bd fb94 9dbd 6406 61bd ba8d 1bbd
000001c0: 1f96 a83d 79ea bdbb 8142 7bbd 6907 c4bc
000001d0: 11d7 39bc 5bb4 7f3d 4679 fa3c 8af3 8e3d
000001e0: cf8d 9ebd 80fa 82bd 0213 aa3d b3cd 4c3d
000001f0: 484b 50bd 7208 81bb 5a2c 19bd 8b42 aebb
00000200: 458a 993d e694 593c cfcc b93d 09fc 2bbd
00000210: 32ad c4bc 0d50 08bd 8b03 17bd cb00 503d
00000220: f7db 22bd b004 a7bd 2663 cdbd a534 6d3d
00000230: c3f6 abbc 3833 8cbd b10d 24bb b8e5 543c
00000240: cffd a83d 067c 6c3d 069b b8bd b630 7cbd
00000250: 65e8 bb3c b03d 2f3d e9f1 d53d 4a65 ad3d
00000260: a694 183d dcf7 23bd 91ae 19bc 53fe 19bd
00000270: 697c 3fbd 7970 2c3d 37d6 e03c 4fbc aebd
00000280: 1f63 86bc ba7e 813d 28a2 efbc 7152 413c
00000290: d7ce a13c 4e92 513d 6ecc 26bd eab3 d23c
000002a0: 27cd c5ba 38d3 bb3d 707e b0bd b30c 9cbd
000002b0: 584e 8a3d 1374 063d c77a 6dbd c31b d13d
000002c0: 6f6e 91bd 4a2f f03b dd6d 913d 2793 613b
000002d0: a9df 0bbd 800f a0bd 3c49 ddbc 3fe3 38bb
000002e0: 6b8d 893d c91f 94bd 15c3 8bbd 723e f8bc
000002f0: 1d95 bf3d fa2c 9b3d 05fb aebd 636a 423d
00000300: 6366 123d 7a25 70bd 3856 01bd 7fd3 a93d
00000310: fc65 943d 8aa2 bfbd 0f6d 0fbc 8f68 18bb
00000320: 648a 8f3d 0ad6 75bc edff 9f3c 9444 b93d
00000330: fdb3 813d 396b a1bd dd85 a63d c3cd 3abd
00000340: f1e2 a6bc b71c 903c 7e60 6fbd 7d73 663d
00000350: 45a5 aa3c 1a5f c4bd cf9e cfbc 3f13 d6bc
00000360: aeea 8ebd 3bc4 20bd 1fc6 7fbd bbb1 87bd
00000370: ca32 0e3d 01be 8ebd 4b44 873d cf29 c4bd
00000380: 7cd8 f63c 8b2c 723d 049c 95bd 4d22 3d3c
00000390: 6e6e 613d 8ef1 c3bd 8076 4e3d d0e6 efbc
000003a0: 4c57 9c3b 7796 643d 173c 37bd 661a 96bd
000003b0: a280 debc d75d 3cbd 50f3 713d 9272 fc3c
000003c0: 4c64 c63c a59a e93b a801 91bc e5a5 2d3d
000003d0: cfc5 2fbc 9885 bb3d 933f 863d c976 93bb
000003e0: df83 72bd 2ba6 06bc 49bc 7b3d 4f92 86bd
000003f0: fbf3 5f3b 97d7 673d 3966 893d f125 0abd
0.0025305338 -0.052396815 0.054011498 -0.081814006 0.07443366 -0.07573841 -0.059940536 0.07464878
0.061423972 0.088447325 -0.07901211 0.076845065 -0.00021270734 -0.07876167 -0.040671315 -0.08652772
-0.026122633 0.043734238 -0.097688004 -0.014589385 -0.035854194 0.08365967 -0.095815234 -0.096921064
0.070459984 0.015626334 0.06852102 0.08347967 0.05894909 0.07239314 0.08618785 0.030520113
0.023521092 -0.051460627 -0.06306177 0.021096725 -0.057591055 0.013814379 -0.056509335 -0.084099196
0.056941945 -0.051307462 -0.092418976 -0.07637502 -0.050070353 -0.038762074 0.09520804 -0.039648954
0.03087567 -0.0307616 0.043133274 -0.026669249 -0.029900646 -0.0095786005 -0.04332071 0.02483532
0.047873575 0.028743878 -0.100382514 0.050357506 -0.056491263 0.06855077 -0.025147572 -0.08647901
0.033521794 -0.039572112 -0.019368263 -0.045615733 -0.017080404 0.05260912 0.09215186 -0.06283991
-0.09984268 0.0323371 -0.0058692 -0.067953505 0.041667353 -0.085006334 -0.051717877 0.019716894
0.07384557 0.023460636 0.09299168 -0.060440436 0.08852525 0.06616603 0.0072279703 -0.012074835
-0.08618801 0.010740869 -0.0036259387 0.057358235 0.026157916 -0.071600646 -0.09350945 -0.07283141
0.016850147 0.012763411 -0.037183348 -0.07006805 -0.099634685 -0.015452559 -0.02919297 0.09847635
0.090998024 -0.08364256 0.0093969945 0.009612357 -0.08789247 -0.076944314 -0.054937735 -0.037976958
0.08231758 -0.0057957736 -0.06134272 -0.023929315 -0.01134278 0.06242786 0.030575406 0.06980045
-0.077418916 -0.06395435 0.08304407 0.050000858 -0.050853044 -0.0039377743 -0.037395813 -0.005317991
0.07497076 0.013280129 0.09072267 -0.041988406 -0.024008367 -0.033279467 -0.036868613 0.050782006
-0.039760556 -0.08155191 -0.10028677 0.057911534 -0.020991689 -0.06845707 -0.0025032575 0.012994222
0.08251535 0.057735465 -0.090139434 -0.061569892 0.022937963 0.04278344 0.10446531 0.08466585
0.037251137 -0.0400313 -0.009379999 -0.037596058 -0.046749506 0.04209945 0.027445896 -0.08532011
-0.016404686 0.06322999 -0.029252127 0.011799441 0.01975195 0.051164918 -0.040722303 0.025720555
-0.0015091047 0.09171146 -0.08617866 -0.0761961 0.06753224 0.03282554 -0.057978418 0.10210373
-0.07101142 0.007329856 0.07101033 0.0034419985 -0.034148846 -0.078154564 -0.02701246 -0.002821162
0.067164265 -0.07232625 -0.06824318 -0.030303214 0.09354613 0.07576938 -0.08543972 0.04746474
0.035742175 -0.05862949 -0.031576365 0.08292293 0.072460145 -0.09357174 -0.008754029 -0.002325568
0.07008818 -0.015004644 0.019531215 0.09046283 0.06333158 -0.07881779 0.08131001 -0.045606386
-0.020371886 0.017591817 -0.05844163 0.056262482 0.02083076 -0.09588452 -0.02534428 -0.026132224
-0.06978355 -0.03924964 -0.062444802 -0.06625696 0.034716405 -0.06969834 0.06604823 -0.09578287
0.030132525 0.05912451 -0.07305148 0.0115438225 0.055036955 -0.09567557 0.05040598 -0.029284865
0.004771149 0.055807557 -0.04473504 -0.07329254 -0.027160946 -0.04598793 0.05906993 0.03081635
0.024217747 0.007129031 -0.017700985 0.042394537 -0.010728314 0.0915634 0.065550946 -0.0045002443
-0.059207793 -0.0082183285 0.06145886 -0.06570875 0.0034172523 0.056602087 0.067089505 -0.03372759

fch.2.0.bias f4 [100]
00000000: fb68 9d3c 0a5b a5bd 9d51 52bc 56b9 bb3d
00000010: 1097 8cbd 6c82 c2bd c2b6 25bc 3801 1d3d
00000020: 7f49 13bd 27db 173b c545 613d 2dce 2e3c
00000030: 57d6 38bd 29d8 49bd e199 063d 00f1 433d
00000040: 9590 973d 0801 833d 5775 ebbb 1671 b93d
00000050: 415d a03d d7b2 8b3d a0a7 bc3d 0416 84bd
00000060: e145 8f3d 3b17 b83d 5a7f e1bc 74d2 9dbb
00000070: bcd0 9dbd d3e5 b13d 2b29 973d 1355 503c
00000080: ea10 28bd 50e5 3f3d 403f afbd 7e3d b3bd
00000090: 407a cfbc d084 41bd ad58 1cbd cefe ba3d
000000a0: 7269 05bd b6ec fe3c 1d1a a33d 507a bfbd
000000b0: 68e7 87bd 67ec 0ebd 3c4d 77bd 4a42 5e3d
000000c0: fed6 49bd 3a2c 9cbd 9c60 0fbd 445e 24bd
000000d0: 96fa d13c 1eb6 9c3b 0ab4 96bd c0dc 833c
000000e0: 59d3 95bd ac0f ac3d 7da9 353d 959e d5bc
000000f0: 9888 51bd f45a ac3d 69e8 6abc fe11 723d
00000100: 8a49 2fbd 176d b7bd 5e2e 713d 6d1f aa3c
00000110: aed4 1d3d 4d10 dbbc 784c 7a3d cb1e 023d
00000120: 0a49 1fbd f3e8 c2bd b475 0fbc 93e7 8a3c
00000130: 373c f9bc 3d58 b93d 0608 6cbc 4f39 92bc
00000140: 0029 123d 0658 10bc ac90 25bd 4efc 3e3d
00000150: 09ae 203d 6f31 71ba f09f 13bd 8051 7f3d
00000160: 30d7 643d 239a 8c3c 8687 e7bc 95a6 36bd
00000170: 5f16 48ba 768a 413c b772 46bd 9662 9cbd
00000180: f9c6 9fbc aebd c2bd 32a7 383c 1ffb f03c
0.019215098 -0.08074005 -0.012836841 0.091662094 -0.068647504 -0.09497532 -0.010114374 0.03833124
-0.035958763 0.0023171396 0.054998178 0.010669273 -0.045126285 -0.049278412 0.032861594 0.047837257
0.07400624 0.06396681 -0.007185619 0.090547726 0.07830287 0.0682122 0.092116594 -0.06449512
0.0699575 0.08988806 -0.027526546 -0.0048163477 -0.077058285 0.086864136 0.07380899 0.012715596
-0.041031756 0.04684955 -0.08556986 -0.08751963 -0.025326848 -0.0472458 -0.038170505 0.091306314
-0.032571264 0.031118732 0.07963965 -0.09349501 -0.06635934 -0.03489342 -0.06037639 0.054262437
-0.0492773 -0.07625623 -0.035004243 -0.04012896 0.025632184 0.0047824522 -0.073585585 0.016096473
-0.07315702 0.08401427 0.04435109 -0.026076594 -0.051155657 0.084157854 -0.014337637 0.05909919
-0.04279474 -0.08956354 0.05888211 0.020766938 0.038532905 -0.026741171 0.061108083 0.031767648
-0.038888015 -0.09517088 -0.00875609 0.016956126 -0.03042422 0.09050033 -0.01440621 -0.017849592
0.035683632 -0.008810049 -0.040421173 0.046627335 0.039228473 -0.00092007866 -0.0360412 0.062333584
0.05586928 0.017163342 -0.028262865 -0.04459246 -0.0007632728 0.011812797 -0.048449244 -0.07635991
-0.019504057 -0.09508835 0.011270331 0.029416619

fch.3.0.weight f4 [100, 100]
00000000: cb0e 67bd 5d58 bcbd 889a 8a3d 8e2e abbd
00000010: a7af 8d3b b657 1f3d 6b40 693d be7e 9ebd
00000020: dfb1 87bd 4dad 67bd e3ea e1bc 71ac 2a3d
00000030: 4918 10bd 8845 14bd da81 c63d 4b48 0d3d
00000040: adbb 50bd ca06 a1bd 3e58 c8bc b9a6 d3bd
00000050: 7f96 05bd 34e1 b4bd f188 a23c 8e93 fcbc
00000060: d2a8 623d 27b5 56bc 6c27 b7bd 722e 09bd
00000070: 6336 9e3d d0dc 2d3d f2a7 693c 5213 c43d
00000080: 8e7a c8bc c2b8 d3bd d8d8 a73d 6fc2 2f3d
00000090: 07a3 b0bd 7873 21bd 0073 61bc a90f 73bd
000000a0: 9bb6 af3d ba9c ca3d b585 a53c d9ba d43d
000000b0: 1f35 a7bd f52e cfbd b549 7abc 744b 6fbd
000000c0: 2eba b1bd 5814 17bd b44e be3d 85ff 8dbd
000000d0: aa67 c8bd e122 4bbc f8c2 c8bc ae8e 553d
000000e0: f67e 913d 2339 b0bd a5e2 abbb 4258 97bd
000000f0: 9f12 003d f027 6e3c 5d29 3abd d54e cd3d
00000100: a8c6 493d d2ad a4bd b8f3 6e3d e2f6 943c
00000110: 93e0 95bd abce 863d e0c5 b13b de41 253c
00000120: ff44 84bd 64d6 3a3b 06ab 7dbd 9544 a83d
00000130: fccc 6bbc 4975 953b c890 5a3d eae8 6cbd
00000140: f89c bd3b 91b7 c33c 1063 91bd 788e c1bd
00000150: d5dd 9abd baae abbc b9f6 373d 864d 15bd
00000160: 6cb9 9b3d 0edb 96bd 667c d43c 4339 6f3a
00000170: 6ced ee3c 48ad b83c ad32 b5b6 5c82 f83b
00000180: 1828 363d 4e34 4f3d 7d4d 6d3d 6acb b4bd
00000190: 943c 363d 96c0 84bd ced4 c7bd e47c 913d
000001a0: 6da3 a93d 9ad9 c03d 0c77 5cbd 385f a83d
000001b0: 64a8 94bd 0931 e43b 756c 913d d477 a13d
000001c0: b984 903d 22e7 83bd 6f8c a2bd 0973 d23d
000001d0: 78ad b33d 3bc4 0d3d 92c9 33bd ef31 c83d
000001e0: 4f21 aebd b531 a53d ac11 c2bc c1e3 c03d
000001f0: 151b 92bd 20bf 74bd f265 5fbd b249 18bc
00000200: 5f62 773d 9085 a93d 5939 67bd 05bf 9cbd
00000210: c61f 4abc 3b04 3b3d 0387 8c3c ea5d a1bd
00000220: 2219 a13d 1e3f 4d3d e079 453d 58bb 58bc
00000230: e37b c43d f0cb b83d 201a 16bd 9a1a a3bd
00000240: 5ab8 6d3d 1dce 57bd f413 93bd 4c86 21bd
00000250: 02ff d23c 2f4f 933c 878a 1cbd 8f74 333d
00000260: d773 873d 8e25 633d 6382 4e3d a435 0b3d
00000270: 6a6b 0c3d 2587 9bbd c93a 0fbc 840a 063d
00000280: f859 50bd f85a 243d a138 063c c7ad 073d
00000290: 131e 8a3d 018c b3bc 293f b83c d010 b53d
000002a0: 61b3 973d c6ad 633c 4595 62bb 00e6 f4bc
000002b0: 857e ac3c b08a acbc 7d25 35bd 62d3 8e3d
000002c0: 3075 ab3c 8b13 ad3d 8547 b9bb 1bf6 e239
000002d0: 2164 8cbd 5556 11bd 34dc 2bbd 10cf fd3a
000002e0: c2c7 07bd 50ff a0bd f287 82bc 9d83 dd3c
000002f0: e2a2 a93d 4fe6 793d 2650 203c 4e9f eeba
00000300: 635a 64bd 4b2d 093c 6b07 9a3b 810e d2bd
00000310: f141 0d3d c8d4 7abd 201c 903d 0c9e a3bc
00000320: adb1 4bbd f666 413d 8384 8ebd 3471 21bd
00000330: 9226 963d 572b 84bd e404 a93c 1dc0 97bb
00000340: a73f 9dbd 0e63 09bd 5509 88bd e030 413d
00000350: a883 bb3d 86bb a6bd 19f4 5c3c b6cc 9f3c
00000360: 792e 743d f35e 60bc 8051 813d a4d4 67bd
00000370: 560c 553d 80c5 b6bd c518 263d a548 babd
00000380: 31c6 75bd 674b 13bd 91e3 0b3d 8ac9 bbbd
00000390: ce46 8cbd e6fd 60bd 2d6a 97bd cd20 ab3d
000003a0: 350f bbbd ac07 adbd 27bb 93bd a162 26bd
000003b0: 2e0a b2bd 857a 8fbc a476 093d 11c0 b33c
000003c0: 3b4c 393d bca4 bd3d 895d c03d a207 5e3d
000003d0: 9131 a63d 9303 fd3c 6c87 e63c 211d f93c
000003e0: 03f0 b73d a4b7 c8bd 5c78 823d ca2f b43d
000003f0: 48e0 133d cc55 813c dfc8 b03d 7bf7 c33d
-0.056410592 -0.091965415 0.06767756 -0.08358489 0.004323918 0.038902007 0.0569462 -0.07739018
-0.06625723 -0.056561757 -0.027577823 0.04166836 -0.03517941 -0.036199123 0.09692736 0.034492772
-0.05096023 -0.07862623 -0.02445614 -0.10334534 -0.032614227 -0.088320166 0.01984069 -0.030832078
0.05533678 -0.0131047135 -0.08943066 -0.03349156 0.07725217 0.04244691 0.014261233 0.095739976
-0.024472501 -0.10337974 0.081956565 0.042910036 -0.08624845 -0.03941676 -0.013760328 -0.059341107
0.08579751 0.098931745 0.020205358 0.10387201 -0.08164429 -0.10116378 -0.015276362 -0.058421567
-0.08678089 -0.036884636 0.09292355 -0.06933502 -0.09785397 -0.0123984525 -0.02450703 0.052138023
0.07104294 -0.08604648 -0.005245524 -0.07389881 0.03126776 0.014535889 -0.045449603 0.10024802
0.04926172 -0.08040966 0.058337897 0.01818413 -0.07318225 0.065823875 0.0054252 0.010086505
-0.064584725 0.0028509134 -0.06193068 0.08216206 -0.014392134 0.0045611006 0.05336073 -0.05783931
0.0057865344 0.023891242 -0.07098973 -0.09451002 -0.07561842 -0.02095734 0.044913027 -0.036450885
0.07603726 -0.07366 0.025938224 0.0009125659 0.029165946 0.022543564 -5.40012e-06 0.0075838994
0.04447183 0.05058699 0.057935227 -0.08827861 0.044491366 -0.06482045 -0.09757386 0.07103899
0.08283124 0.09416504 -0.05382447 0.082212865 -0.072586805 0.0069638533 0.07100765 0.078841835
0.07056565 -0.064405695 -0.07936942 0.102758475 0.08773321 0.034610968 -0.043893404 0.09775149
-0.08502447 0.080661215 -0.023690067 0.094184406 -0.07134072 -0.059752584 -0.054540582 -0.009294914
0.06039655 0.08277428 -0.056451175 -0.076536216 -0.012336677 0.04565833 0.017154222 -0.07879241
0.07866122 0.05010902 0.048211932 -0.01322826 0.09593942 0.09023273 -0.03664601 -0.07964058
0.05803714 -0.0526868 -0.0718154 -0.039434716 0.025756363 0.017982094 -0.038218047 0.04381233
0.066138916 0.055455737 0.050417315 0.033986703 0.034282126 -0.07594136 -0.008742043 0.032724872
-0.05086705 0.040125817 0.008192212 0.03312471 0.067440175 -0.021917345 0.022491055 0.08841097
0.07407261 0.013896411 -0.0034573835 -0.029894829 0.021056423 -0.021062225 -0.044225205 0.06973912
0.020929903 0.08450993 -0.0056542777 0.00043289442 -0.068550356 -0.035482723 -0.04195805 0.0019364078
-0.03314949 -0.07861197 -0.015933964 0.027040297 0.082830206 0.061010655 0.009784734 -0.0018205435
-0.055750262 0.008372615 0.0047005913 -0.10256673 0.034486715 -0.06123808 0.070366144 -0.019972824
-0.04972999 0.04721733 -0.06958868 -0.0394146 0.073315755 -0.06453579 0.020632215 -0.004631056
-0.07678156 -0.03354173 -0.06642405 0.04716575 0.09155971 -0.08141236 0.013485932 0.019506793
0.059614632 -0.013694513 0.06314373 -0.056599274 0.052013718 -0.08924389 0.040550966 -0.09095887
-0.060003463 -0.03596058 0.03415257 -0.091693 -0.068494424 -0.054929636 -0.07393298 0.08355866
-0.0913376 -0.08448729 -0.07213431 -0.040621404 -0.08693348 -0.017514477 0.03356041 0.02194217
0.045238715 0.09259936 0.093928404 0.054206498 0.08114923 0.030885493 0.028140746 0.030409398
0.089813255 -0.09800652 0.06370613 0.087981775 0.036102563 0.015787981 0.08632063 0.095686875

fch.3.0.bias f4 [100]
00000000: e079 613d e839 233d f9d2 c53c b59e b03d
00000010: ece5 a9bd 8d27 cabd a72d 913d 642e cebd
00000020: 76a5 c63d 2961 413d d5e8 223c ec95 8ebd
00000030: 152d af3d 9c23 d6bc da6e 7f3c a395 963d
00000040: 58de 813d ddfd 15bd 1e5b e5bc 476b b6bc
00000050: 263e dbbc fae0 e13c ec70 9e3c 6071 64bd
00000060: 2abc a13d 661a 663d d994 a63d 93f9 ae3d
00000070: 3b77 573c 1ace bdbd d352 093d a357 b03c
00000080: d31b bebd a7ea 043d 4ce6 fcbc 35bf d4bd
00000090: ad3c 1fbd 11b4 bcbd 11b6 bfbd 6c64 153d
000000a0: 0f3a c5bd 644a fb3c dfbc 09bc b6ff 8abd
000000b0: 54a1 b83d 9d94 0a3d c0e4 e7bb f8ad f43c
000000c0: 550c 5a3c 6348 1b3c e5cc babd 8122 4b3d
000000d0: 9288 e73a cad4 90bd 2183 88bd 4293 e6bc
000000e0: e392 8abd d594 6dbc e09c 80bc 181f 8ebd
000000f0: 03c3 2d3d b66d ad3d c5d1 f03c 0e48 c0bd
00000100: c74a 69bb 55dc 0cbd db00 8fbd 3af7 c63d
00000110: 582f 0a3d b5d1 a0bd 028a 983c 996a aabd
00000120: 1588 c4bb 4441 5ebd d386 eabc b1b8 a0bd
00000130: b655 42bc 8fbc 6c3d 954f 973d 2c9e 9abd
00000140: f8fd 803d df27 9abd 9f56 4ebd 5d34 2fbd
00000150: 1180 a1bd e5bc 9cbc 6d7f 7e3d 03a9 dcbc
00000160: eb28 3a3d 598e 52bc 740b 13bd 4729 78bd
00000170: f909 7a3d 4a82 a3bc 02c7 aebd 3b75 53bd
00000180: 934b b53d ebce afbd f396 60bd fcfb 8a3d
0.05504787 0.039850146 0.024148451 0.08624021 -0.08295807 -0.09870825 0.070887856 -0.10067442
0.09699528 0.0472118 0.009943207 -0.06962189 0.085535206 -0.026140027 0.015590394 0.0735276
0.06341237 -0.036619056 -0.02799755 -0.02226795 -0.026763033 0.027573097 0.019340955 -0.055772185
0.078972176 0.05617752 0.08133859 0.08543696 0.013150985 -0.092678264 0.033526253 0.021526163
-0.09282651 0.032450344 -0.030871533 -0.10388032 -0.038876224 -0.092140324 -0.09360898 0.036472723
-0.096302144 0.03067512 -0.008406847 -0.06787054 0.09015146 0.033833135 -0.0070768297 0.029868111
0.013308604 0.009477708 -0.09121112 0.049593452 0.0017664602 -0.07071836 -0.06665636 -0.02814639
-0.06766298 -0.014500816 -0.015699804 -0.069395244 0.042422306 0.08468191 0.0293969 -0.09388743
-0.003559755 -0.034389812 -0.06982585 0.097151235 0.033736557 -0.078524984 0.018620495 -0.08321113
-0.0059976676 -0.05426146 -0.028628742 -0.07847727 -0.011861255 0.05779701 0.07388226 -0.075497
0.06298441 -0.07527136 -0.050375577 -0.042774547 -0.07885755 -0.01913304 0.06213324 -0.02693606
0.04544918 -0.012851321 -0.035899594 -0.06058624 0.061044667 -0.019959588 -0.085340515 -0.05162547
0.08852305 -0.08584388 -0.054831456 0.067863435

fce.weight f4 [3, 100]
00000000: 2ee3 893d 5938 153d d317 9f3d 41a6 10bd
00000010: 6742 adbd 6642 19bd 8361 92bb 198c 5a3d
00000020: 63ee cdbd 7984 4cbd f837 00bd 6ad3 bcbd
00000030: fd2c 173d d9ab 513d 2589 3ebd 8037 b73d
00000040: 79e3 d03c e608 973d 1528 b9bd 650f e9bc
00000050: b8af 853b 928d 32bd beaf afbd 3054 17bd
00000060: 2931 173c 2989 b0bd ce5e 7bbd 249e 413c
00000070: b941 51bd e927 743d acb6 aabc 707a 953d
00000080: 32e4 133c 81c2 3f3b d5d5 aebd 8629 033d
00000090: 0cc3 903c 169f 82bc 17b3 b9bc 2140 343d
000000a0: a7c0 a53d d9fd 74bd 4836 8fbd a064 093d
000000b0: 3016 ab3d 0787 64bd cb02 383c 38c2 df3c
000000c0: fda4 a3bd 74f3 b53c 37a6 65bd f4a6 bebd
000000d0: 45c2 42bd 90af 943c 6ec6 7a3d 0abe 07bd
000000e0: 6834 d23c bff5 c23d 062d 0c3d 6e11 9dbb
000000f0: 23b3 4a3d 6394 803d 0ea2 65bd 0924 2c3d
00000100: 02c4 e23c 903f e43c f8fe 973d 970e 88bd
00000110: 3e19 63bc 3595 b9bd 030e a53d d973 743d
00000120: 19a2 603d 67a5 4fbd 668e d73a a5db 0ebd
00000130: 77a6 9c3d 6256 22bb 48a3 403d c1d5 99bd
00000140: bba4 b13d 5a26 053d b3b7 aabd b825 fabc
00000150: 020f 8fbd 8828 b7bc 573c 223d ffda 9cbd
00000160: 15d6 9dba dd2e 63bd c997 86bc 4ee8 ea3c
00000170: a500 29bd 6fba a53d 3145 7f3d 1597 1dbd
00000180: c196 5abd 46f1 883d 36d9 10bd 321c 0c3d
00000190: 86ba b03d 9432 bebd 366d 143d 6754 e63c
000001a0: f658 993d ab87 893d aaa0 d13c 2146 8ebc
000001b0: d49e 24bd 18dd 873d d2fb 313c 5252 2b3d
000001c0: c5d7 6f3d 4a10 0c3d ae0c 9eb9 1021 433d
000001d0: aa98 09bd 406b 813d 3052 65bd ab7b ac3c
000001e0: fbd9 78bd b0e4 ddbc b4b1 c83b f270 aabc
000001f0: 87b0 4a3d 87dd 803d 6e5e e1bc 8ebb a0bd
00000200: e37f 473d a137 523b 92e8 4bbd 22f6 fb3c
00000210: b806 9e3d d181 1d3d 0a6a 4f3d c82a d93c
00000220: d082 113d 83a1 21bd fc2f ef3c 0714 2a3d
00000230: 3e95 013d 790f 8b3d 8fbb 873d b586 bebd
00000240: 6319 813d bcd2 a6bc 0454 363d 47ad 4ebc
00000250: 0a6d a3bd 757e 773c 82fe 0fbd 42b7 ed3c
00000260: d646 6b3d 4337 bc3d ef05 953d 71d1 c4bc
00000270: c9e3 9d3d ee49 843d cc9a 87bd 9914 683d
00000280: 43b9 d9bc f1b2 0c3d c409 a8bd c77d a0bd
00000290: ab37 3c3d ee8a 4dbd f609 903d 501d 0abd
000002a0: a161 b5bd 9c0d 8ebc 32c9 a0bb 8dcc 3abd
000002b0: c9b1 49bd 56ef 2d3d 3f8d 2bbd ef59 b4bd
000002c0: 1567 ae3d 29a5 3bbd 7ef6 9fbd 78a7 23bd
000002d0: 5e28 eabc 9b76 cebc 6523 6cbc eb27 ad3d
000002e0: 830e c7bc 83e4 50bd 571a cabc 5e7c 273d
000002f0: 6a7e 703d dfad 1abd f03c 983c fa24 3dbd
00000300: d56b 92bd cb21 c5bd d1de 993d 0bb3 613c
00000310: 1b2f 1dbd 8ef0 8fbd db3e c1bc a5a0 d1bd
00000320: c4fe f33c 4745 62bd c6a6 363d a2b5 053d
00000330: 7c5f 473d 98a6 d03c 3638 60bb c6d9 793d
00000340: fc86 c23d 7eb7 c0bc b269 12bb 2a92 af3d
00000350: 5357 893d f4b7 433d fbe4 bdbd 36b9 9e3c
00000360: 6bf0 6b3d e046 22bd 82f2 bf3d d9c0 81bd
00000370: 7533 4c3d f30e b33d 57a0 9bbd 69f4 84bd
00000380: 4770 64bd 9af8 7f3d 9206 96bd b0bf 1bbc
00000390: 1499 553d c9d2 f93c ce30 4f3d ff0b 7b3d
000003a0: 4fa4 d83c c787 17bd 3781 a1bd 10c3 8d3d
000003b0: 1ca2 d1bc 506f 4ebd c134 a53d c7b1 1abd
000003c0: 4715 253d 79e1 63bd 2719 ac3c e122 ab3d
000003d0: 69c2 a9bc 9793 2e3d 0495 81bd ab32 883d
000003e0: 68d8 863d 09f2 88bd db56 cd3d d1d5 f7bc
000003f0: 720c a93d d4e8 35bd 13e1 7fbd 00e0 a13d
0.06732784 0.03643069 0.07768216 -0.035314802 -0.08459931 -0.037416838 -0.0044671907 0.053356264
-0.10055234 -0.049931023 -0.031303376 -0.092200115 0.03690814 0.051189277 -0.04651751 0.08946133
0.025499092 0.07374744 -0.09040848 -0.028449723 0.004079785 -0.043592043 -0.08578442 -0.03694552
0.009228029 -0.08619911 -0.06136971 0.011817489 -0.05108807 0.059608374 -0.020839058 0.07298744
0.009026574 0.002926022 -0.08536879 0.03202202 0.01767113 -0.015944999 -0.022668405 0.04400647
0.08093386 -0.0598124 -0.06992775 0.03354323 0.08353841 -0.055792835 0.011231135 0.02731429
-0.079904534 0.022210814 -0.056066718 -0.093091875 -0.04754855 0.018150121 0.061224394 -0.03314022
0.025659755 0.095195286 0.034222625 -0.0047933375 0.049487244 0.062783025 -0.05606275 0.042026553
0.027681354 0.02786234 0.07421678 -0.06643408 -0.013860999 -0.09061662 0.08059313 0.059680793
0.05484209 -0.05069485 0.0016445636 -0.034877438 0.07648938 -0.0024770726 0.047030717 -0.075114734
0.08673998 0.032507278 -0.08335819 -0.030535564 -0.069852844 -0.022358194 0.039608326 -0.07658958
-0.0012041951 -0.055464614 -0.016429799 0.028675225 -0.04126038 0.080922 0.062321845 -0.03847416
-0.053366426 0.06686644 -0.0353634 0.034206577 0.086293265 -0.09286991 0.036236964 0.028116418
0.07487671 0.0671533 0.025589306 -0.017367424 -0.040190533 0.06633967 0.010863261 0.041826554
0.058555383 0.034195222 -0.00030145556 0.047638953 -0.033592857 0.063192844 -0.055986583 0.021055063
-0.060754757 -0.027086586 0.0061246995 -0.02080581 0.049484756 0.06292253 -0.027510848 -0.07848273
0.048705947 0.0032076614 -0.049782343 0.030757014 0.07716125 0.03845388 0.050638236 0.026509658
0.035525143 -0.03946067 0.029197685 0.041523006 0.03163647 0.067900605 0.06627571 -0.09303037
0.0630367 -0.020364158 0.044513717 -0.012614555 -0.07979782 0.015105833 -0.035154827 0.029018048
0.0574406 0.09190228 0.07276522 -0.02402565 0.07709462 0.064594135 -0.06621322 0.05666027
-0.026577597 0.03435034 -0.08204988 -0.0783649 0.045951527 -0.05018132 0.0703315 -0.03371936
-0.08856512 -0.017340474 -0.004906797 -0.04560523 -0.049241815 0.042464577 -0.04188275 -0.08806216
0.08515755 -0.045811806 -0.078106865 -0.039954633 -0.028583702 -0.02520304 -0.014412736 0.084548794
-0.024298912 -0.050999176 -0.024670763 0.04089009 0.058714308 -0.037763473 0.018583745 -0.04617784
-0.071494736 -0.09625586 0.07513202 0.013775597 -0.038375 -0.07028304 -0.023589542 -0.10235719
0.029784568 -0.05524185 0.04459264 0.03264392 0.048675045 0.025470063 -0.0034213192 0.0609987
0.094984025 -0.023524996 -0.0022340831 0.085728005 0.06706109 0.047782853 -0.0927219 0.019375425
0.057602327 -0.039618373 0.093724266 -0.06335611 0.04985376 0.08743086 -0.07598942 -0.0649193
-0.05577114 0.062492944 -0.07325472 -0.009506151 0.05214794 0.030496018 0.050583653 0.061290737
0.026445536 -0.03699472 -0.07885974 0.06921971 -0.025589995 -0.050399125 0.08066703 -0.037767198
0.040303495 -0.05563495 0.021008087 0.08356262 -0.020722585 0.04262122 -0.063272506 0.06650289
0.06584245 -0.066867895 0.10026332 -0.030253323 0.08254327 -0.044411495 -0.062470507 0.07904053

fce.bias f4 [3]
00000000: a440 a83d 20a8 5a3d 6e2a 2abd
0.08215454 0.053382993 -0.04154437
